{"format": "layers-model", "generatedBy": "keras v2.4.0", "convertedBy": "TensorFlow.js Converter v3.18.0", "modelTopology": {"keras_version": "2.4.0", "backend": "tensorflow", "model_config": {"class_name": "Model", "config": {"name": "mobilenetv3large_spoof", "layers": [{"class_name": "InputLayer", "config": {"batch_input_shape": [null, 128, 128, 3], "dtype": "float32", "sparse": false, "ragged": false, "name": "input_1"}, "name": "input_1", "inbound_nodes": []}, {"class_name": "Rescaling", "config": {"name": "rescaling", "trainable": true, "dtype": "float32", "scale": 0.00392156862745098, "offset": 0.0}, "name": "rescaling", "inbound_nodes": [[["input_1", 0, 0, {}]]]}, {"class_name": "Conv2D", "config": {"name": "Conv", "trainable": true, "dtype": "float32", "filters": 16, "kernel_size": [3, 3], "strides": [2, 2], "padding": "same", "data_format": "channels_last", "dilation_rate": [1, 1], "groups": 1, "activation": "linear", "use_bias": false, "kernel_initializer": {"class_name": "GlorotUniform", "config": {"seed": null, "dtype": "float32"}}, "bias_initializer": {"class_name": "Zeros", "config": {"dtype": "float32"}}, "kernel_regularizer": null, "bias_regularizer": null, "activity_regularizer": null, "kernel_constraint": null, "bias_constraint": null}, "name": "Conv", "inbound_nodes": [[["rescaling", 0, 0, {}]]]}, {"class_name": "BatchNormalization", "config": {"name": "Conv/BatchNorm", "trainable": true, "dtype": "float32", "axis": [3], "momentum": 0.999, "epsilon": 0.001, "center": true, "scale": true, "beta_initializer": {"class_name": "Zeros", "config": {"dtype": "float32"}}, "gamma_initializer": {"class_name": "Ones", "config": {"dtype": "float32"}}, "moving_mean_initializer": {"class_name": "Zeros", "config": {"dtype": "float32"}}, "moving_variance_initializer": {"class_name": "Ones", "config": {"dtype": "float32"}}, "beta_regularizer": null, "gamma_regularizer": null, "beta_constraint": null, "gamma_constraint": null}, "name": "Conv/BatchNorm", "inbound_nodes": [[["Conv", 0, 0, {}]]]}, {"class_name": "TensorFlowOpLayer", "config": {"name": "add", "trainable": true, "dtype": null, "node_def": {"name": "add", "op": "AddV2", "input": ["Conv/BatchNorm/cond/Merge", "add/y"], "attr": {"T": {"type": "DT_FLOAT"}}}, "constants": {"1": 3.0}}, "name": "tf_op_layer_add", "inbound_nodes": [[["Conv/BatchNorm", 0, 0, {}]]]}, {"class_name": "ReLU", "config": {"name": "re_lu", "trainable": true, "dtype": "float32", "max_value": 6.0, "negative_slope": 0.0, "threshold": 0.0}, "name": "re_lu", "inbound_nodes": [[["tf_op_layer_add", 0, 0, {}]]]}, {"class_name": "TensorFlowOpLayer", "config": {"name": "mul", "trainable": true, "dtype": null, "node_def": {"name": "mul", "op": "Mul", "input": ["re_lu/Relu6", "mul/y"], "attr": {"T": {"type": "DT_FLOAT"}}}, "constants": {"1": 0.1666666716337204}}, "name": "tf_op_layer_mul", "inbound_nodes": [[["re_lu", 0, 0, {}]]]}, {"class_name": "Multiply", "config": {"name": "multiply", "trainable": true, "dtype": "float32"}, "name": "multiply", "inbound_nodes": [[["tf_op_layer_mul", 0, 0, {}], ["Conv/BatchNorm", 0, 0, {}]]]}, {"class_name": "DepthwiseConv2D", "config": {"name": "expanded_conv/depthwise", "trainable": true, "dtype": "float32", "kernel_size": [3, 3], "strides": [1, 1], "padding": "same", "data_format": "channels_last", "dilation_rate": [1, 1], "groups": 1, "activation": "linear", "use_bias": false, "bias_initializer": {"class_name": "Zeros", "config": {"dtype": "float32"}}, "bias_regularizer": null, "activity_regularizer": null, "bias_constraint": null, "depth_multiplier": 1, "depthwise_initializer": {"class_name": "GlorotUniform", "config": {"seed": null, "dtype": "float32"}}, "depthwise_regularizer": null, "depthwise_constraint": null}, "name": "expanded_conv/depthwise", "inbound_nodes": [[["multiply", 0, 0, {}]]]}, {"class_name": "BatchNormalization", "config": {"name": "expanded_conv/depthwise/BatchNorm", "trainable": true, "dtype": "float32", "axis": [3], "momentum": 0.999, "epsilon": 0.001, "center": true, "scale": true, "beta_initializer": {"class_name": "Zeros", "config": {"dtype": "float32"}}, "gamma_initializer": {"class_name": "Ones", "config": {"dtype": "float32"}}, "moving_mean_initializer": {"class_name": "Zeros", "config": {"dtype": "float32"}}, "moving_variance_initializer": {"class_name": "Ones", "config": {"dtype": "float32"}}, "beta_regularizer": null, "gamma_regularizer": null, "beta_constraint": null, "gamma_constraint": null}, "name": "expanded_conv/depthwise/BatchNorm", "inbound_nodes": [[["expanded_conv/depthwise", 0, 0, {}]]]}, {"class_name": "ReLU", "config": {"name": "re_lu_1", "trainable": true, "dtype": "float32", "max_value": null, "negative_slope": 0.0, "threshold": 0.0}, "name": "re_lu_1", "inbound_nodes": [[["expanded_conv/depthwise/BatchNorm", 0, 0, {}]]]}, {"class_name": "Conv2D", "config": {"name": "expanded_conv/project", "trainable": true, "dtype": "float32", "filters": 16, "kernel_size": [1, 1], "strides": [1, 1], "padding": "same", "data_format": "channels_last", "dilation_rate": [1, 1], "groups": 1, "activation": "linear", "use_bias": false, "kernel_initializer": {"class_name": "GlorotUniform", "config": {"seed": null, "dtype": "float32"}}, "bias_initializer": {"class_name": "Zeros", "config": {"dtype": "float32"}}, "kernel_regularizer": null, "bias_regularizer": null, "activity_regularizer": null, "kernel_constraint": null, "bias_constraint": null}, "name": "expanded_conv/project", "inbound_nodes": [[["re_lu_1", 0, 0, {}]]]}, {"class_name": "BatchNormalization", "config": {"name": "expanded_conv/project/BatchNorm", "trainable": true, "dtype": "float32", "axis": [3], "momentum": 0.999, "epsilon": 0.001, "center": true, "scale": true, "beta_initializer": {"class_name": "Zeros", "config": {"dtype": "float32"}}, "gamma_initializer": {"class_name": "Ones", "config": {"dtype": "float32"}}, "moving_mean_initializer": {"class_name": "Zeros", "config": {"dtype": "float32"}}, "moving_variance_initializer": {"class_name": "Ones", "config": {"dtype": "float32"}}, "beta_regularizer": null, "gamma_regularizer": null, "beta_constraint": null, "gamma_constraint": null}, "name": "expanded_conv/project/BatchNorm", "inbound_nodes": [[["expanded_conv/project", 0, 0, {}]]]}, {"class_name": "Add", "config": {"name": "expanded_conv/Add", "trainable": true, "dtype": "float32"}, "name": "expanded_conv/Add", "inbound_nodes": [[["multiply", 0, 0, {}], ["expanded_conv/project/BatchNorm", 0, 0, {}]]]}, {"class_name": "Conv2D", "config": {"name": "expanded_conv_1/expand", "trainable": true, "dtype": "float32", "filters": 64, "kernel_size": [1, 1], "strides": [1, 1], "padding": "same", "data_format": "channels_last", "dilation_rate": [1, 1], "groups": 1, "activation": "linear", "use_bias": false, "kernel_initializer": {"class_name": "GlorotUniform", "config": {"seed": null, "dtype": "float32"}}, "bias_initializer": {"class_name": "Zeros", "config": {"dtype": "float32"}}, "kernel_regularizer": null, "bias_regularizer": null, "activity_regularizer": null, "kernel_constraint": null, "bias_constraint": null}, "name": "expanded_conv_1/expand", "inbound_nodes": [[["expanded_conv/Add", 0, 0, {}]]]}, {"class_name": "BatchNormalization", "config": {"name": "expanded_conv_1/expand/BatchNorm", "trainable": true, "dtype": "float32", "axis": [3], "momentum": 0.999, "epsilon": 0.001, "center": true, "scale": true, "beta_initializer": {"class_name": "Zeros", "config": {"dtype": "float32"}}, "gamma_initializer": {"class_name": "Ones", "config": {"dtype": "float32"}}, "moving_mean_initializer": {"class_name": "Zeros", "config": {"dtype": "float32"}}, "moving_variance_initializer": {"class_name": "Ones", "config": {"dtype": "float32"}}, "beta_regularizer": null, "gamma_regularizer": null, "beta_constraint": null, "gamma_constraint": null}, "name": "expanded_conv_1/expand/BatchNorm", "inbound_nodes": [[["expanded_conv_1/expand", 0, 0, {}]]]}, {"class_name": "ReLU", "config": {"name": "re_lu_2", "trainable": true, "dtype": "float32", "max_value": null, "negative_slope": 0.0, "threshold": 0.0}, "name": "re_lu_2", "inbound_nodes": [[["expanded_conv_1/expand/BatchNorm", 0, 0, {}]]]}, {"class_name": "ZeroPadding2D", "config": {"name": "expanded_conv_1/depthwise/pad", "trainable": true, "dtype": "float32", "padding": [[0, 1], [0, 1]], "data_format": "channels_last"}, "name": "expanded_conv_1/depthwise/pad", "inbound_nodes": [[["re_lu_2", 0, 0, {}]]]}, {"class_name": "DepthwiseConv2D", "config": {"name": "expanded_conv_1/depthwise", "trainable": true, "dtype": "float32", "kernel_size": [3, 3], "strides": [2, 2], "padding": "valid", "data_format": "channels_last", "dilation_rate": [1, 1], "groups": 1, "activation": "linear", "use_bias": false, "bias_initializer": {"class_name": "Zeros", "config": {"dtype": "float32"}}, "bias_regularizer": null, "activity_regularizer": null, "bias_constraint": null, "depth_multiplier": 1, "depthwise_initializer": {"class_name": "GlorotUniform", "config": {"seed": null, "dtype": "float32"}}, "depthwise_regularizer": null, "depthwise_constraint": null}, "name": "expanded_conv_1/depthwise", "inbound_nodes": [[["expanded_conv_1/depthwise/pad", 0, 0, {}]]]}, {"class_name": "BatchNormalization", "config": {"name": "expanded_conv_1/depthwise/BatchNorm", "trainable": true, "dtype": "float32", "axis": [3], "momentum": 0.999, "epsilon": 0.001, "center": true, "scale": true, "beta_initializer": {"class_name": "Zeros", "config": {"dtype": "float32"}}, "gamma_initializer": {"class_name": "Ones", "config": {"dtype": "float32"}}, "moving_mean_initializer": {"class_name": "Zeros", "config": {"dtype": "float32"}}, "moving_variance_initializer": {"class_name": "Ones", "config": {"dtype": "float32"}}, "beta_regularizer": null, "gamma_regularizer": null, "beta_constraint": null, "gamma_constraint": null}, "name": "expanded_conv_1/depthwise/BatchNorm", "inbound_nodes": [[["expanded_conv_1/depthwise", 0, 0, {}]]]}, {"class_name": "ReLU", "config": {"name": "re_lu_3", "trainable": true, "dtype": "float32", "max_value": null, "negative_slope": 0.0, "threshold": 0.0}, "name": "re_lu_3", "inbound_nodes": [[["expanded_conv_1/depthwise/BatchNorm", 0, 0, {}]]]}, {"class_name": "Conv2D", "config": {"name": "expanded_conv_1/project", "trainable": true, "dtype": "float32", "filters": 24, "kernel_size": [1, 1], "strides": [1, 1], "padding": "same", "data_format": "channels_last", "dilation_rate": [1, 1], "groups": 1, "activation": "linear", "use_bias": false, "kernel_initializer": {"class_name": "GlorotUniform", "config": {"seed": null, "dtype": "float32"}}, "bias_initializer": {"class_name": "Zeros", "config": {"dtype": "float32"}}, "kernel_regularizer": null, "bias_regularizer": null, "activity_regularizer": null, "kernel_constraint": null, "bias_constraint": null}, "name": "expanded_conv_1/project", "inbound_nodes": [[["re_lu_3", 0, 0, {}]]]}, {"class_name": "BatchNormalization", "config": {"name": "expanded_conv_1/project/BatchNorm", "trainable": true, "dtype": "float32", "axis": [3], "momentum": 0.999, "epsilon": 0.001, "center": true, "scale": true, "beta_initializer": {"class_name": "Zeros", "config": {"dtype": "float32"}}, "gamma_initializer": {"class_name": "Ones", "config": {"dtype": "float32"}}, "moving_mean_initializer": {"class_name": "Zeros", "config": {"dtype": "float32"}}, "moving_variance_initializer": {"class_name": "Ones", "config": {"dtype": "float32"}}, "beta_regularizer": null, "gamma_regularizer": null, "beta_constraint": null, "gamma_constraint": null}, "name": "expanded_conv_1/project/BatchNorm", "inbound_nodes": [[["expanded_conv_1/project", 0, 0, {}]]]}, {"class_name": "Conv2D", "config": {"name": "expanded_conv_2/expand", "trainable": true, "dtype": "float32", "filters": 72, "kernel_size": [1, 1], "strides": [1, 1], "padding": "same", "data_format": "channels_last", "dilation_rate": [1, 1], "groups": 1, "activation": "linear", "use_bias": false, "kernel_initializer": {"class_name": "GlorotUniform", "config": {"seed": null, "dtype": "float32"}}, "bias_initializer": {"class_name": "Zeros", "config": {"dtype": "float32"}}, "kernel_regularizer": null, "bias_regularizer": null, "activity_regularizer": null, "kernel_constraint": null, "bias_constraint": null}, "name": "expanded_conv_2/expand", "inbound_nodes": [[["expanded_conv_1/project/BatchNorm", 0, 0, {}]]]}, {"class_name": "BatchNormalization", "config": {"name": "expanded_conv_2/expand/BatchNorm", "trainable": true, "dtype": "float32", "axis": [3], "momentum": 0.999, "epsilon": 0.001, "center": true, "scale": true, "beta_initializer": {"class_name": "Zeros", "config": {"dtype": "float32"}}, "gamma_initializer": {"class_name": "Ones", "config": {"dtype": "float32"}}, "moving_mean_initializer": {"class_name": "Zeros", "config": {"dtype": "float32"}}, "moving_variance_initializer": {"class_name": "Ones", "config": {"dtype": "float32"}}, "beta_regularizer": null, "gamma_regularizer": null, "beta_constraint": null, "gamma_constraint": null}, "name": "expanded_conv_2/expand/BatchNorm", "inbound_nodes": [[["expanded_conv_2/expand", 0, 0, {}]]]}, {"class_name": "ReLU", "config": {"name": "re_lu_4", "trainable": true, "dtype": "float32", "max_value": null, "negative_slope": 0.0, "threshold": 0.0}, "name": "re_lu_4", "inbound_nodes": [[["expanded_conv_2/expand/BatchNorm", 0, 0, {}]]]}, {"class_name": "DepthwiseConv2D", "config": {"name": "expanded_conv_2/depthwise", "trainable": true, "dtype": "float32", "kernel_size": [3, 3], "strides": [1, 1], "padding": "same", "data_format": "channels_last", "dilation_rate": [1, 1], "groups": 1, "activation": "linear", "use_bias": false, "bias_initializer": {"class_name": "Zeros", "config": {"dtype": "float32"}}, "bias_regularizer": null, "activity_regularizer": null, "bias_constraint": null, "depth_multiplier": 1, "depthwise_initializer": {"class_name": "GlorotUniform", "config": {"seed": null, "dtype": "float32"}}, "depthwise_regularizer": null, "depthwise_constraint": null}, "name": "expanded_conv_2/depthwise", "inbound_nodes": [[["re_lu_4", 0, 0, {}]]]}, {"class_name": "BatchNormalization", "config": {"name": "expanded_conv_2/depthwise/BatchNorm", "trainable": true, "dtype": "float32", "axis": [3], "momentum": 0.999, "epsilon": 0.001, "center": true, "scale": true, "beta_initializer": {"class_name": "Zeros", "config": {"dtype": "float32"}}, "gamma_initializer": {"class_name": "Ones", "config": {"dtype": "float32"}}, "moving_mean_initializer": {"class_name": "Zeros", "config": {"dtype": "float32"}}, "moving_variance_initializer": {"class_name": "Ones", "config": {"dtype": "float32"}}, "beta_regularizer": null, "gamma_regularizer": null, "beta_constraint": null, "gamma_constraint": null}, "name": "expanded_conv_2/depthwise/BatchNorm", "inbound_nodes": [[["expanded_conv_2/depthwise", 0, 0, {}]]]}, {"class_name": "ReLU", "config": {"name": "re_lu_5", "trainable": true, "dtype": "float32", "max_value": null, "negative_slope": 0.0, "threshold": 0.0}, "name": "re_lu_5", "inbound_nodes": [[["expanded_conv_2/depthwise/BatchNorm", 0, 0, {}]]]}, {"class_name": "Conv2D", "config": {"name": "expanded_conv_2/project", "trainable": true, "dtype": "float32", "filters": 24, "kernel_size": [1, 1], "strides": [1, 1], "padding": "same", "data_format": "channels_last", "dilation_rate": [1, 1], "groups": 1, "activation": "linear", "use_bias": false, "kernel_initializer": {"class_name": "GlorotUniform", "config": {"seed": null, "dtype": "float32"}}, "bias_initializer": {"class_name": "Zeros", "config": {"dtype": "float32"}}, "kernel_regularizer": null, "bias_regularizer": null, "activity_regularizer": null, "kernel_constraint": null, "bias_constraint": null}, "name": "expanded_conv_2/project", "inbound_nodes": [[["re_lu_5", 0, 0, {}]]]}, {"class_name": "BatchNormalization", "config": {"name": "expanded_conv_2/project/BatchNorm", "trainable": true, "dtype": "float32", "axis": [3], "momentum": 0.999, "epsilon": 0.001, "center": true, "scale": true, "beta_initializer": {"class_name": "Zeros", "config": {"dtype": "float32"}}, "gamma_initializer": {"class_name": "Ones", "config": {"dtype": "float32"}}, "moving_mean_initializer": {"class_name": "Zeros", "config": {"dtype": "float32"}}, "moving_variance_initializer": {"class_name": "Ones", "config": {"dtype": "float32"}}, "beta_regularizer": null, "gamma_regularizer": null, "beta_constraint": null, "gamma_constraint": null}, "name": "expanded_conv_2/project/BatchNorm", "inbound_nodes": [[["expanded_conv_2/project", 0, 0, {}]]]}, {"class_name": "Add", "config": {"name": "expanded_conv_2/Add", "trainable": true, "dtype": "float32"}, "name": "expanded_conv_2/Add", "inbound_nodes": [[["expanded_conv_1/project/BatchNorm", 0, 0, {}], ["expanded_conv_2/project/BatchNorm", 0, 0, {}]]]}, {"class_name": "Conv2D", "config": {"name": "expanded_conv_3/expand", "trainable": true, "dtype": "float32", "filters": 72, "kernel_size": [1, 1], "strides": [1, 1], "padding": "same", "data_format": "channels_last", "dilation_rate": [1, 1], "groups": 1, "activation": "linear", "use_bias": false, "kernel_initializer": {"class_name": "GlorotUniform", "config": {"seed": null, "dtype": "float32"}}, "bias_initializer": {"class_name": "Zeros", "config": {"dtype": "float32"}}, "kernel_regularizer": null, "bias_regularizer": null, "activity_regularizer": null, "kernel_constraint": null, "bias_constraint": null}, "name": "expanded_conv_3/expand", "inbound_nodes": [[["expanded_conv_2/Add", 0, 0, {}]]]}, {"class_name": "BatchNormalization", "config": {"name": "expanded_conv_3/expand/BatchNorm", "trainable": true, "dtype": "float32", "axis": [3], "momentum": 0.999, "epsilon": 0.001, "center": true, "scale": true, "beta_initializer": {"class_name": "Zeros", "config": {"dtype": "float32"}}, "gamma_initializer": {"class_name": "Ones", "config": {"dtype": "float32"}}, "moving_mean_initializer": {"class_name": "Zeros", "config": {"dtype": "float32"}}, "moving_variance_initializer": {"class_name": "Ones", "config": {"dtype": "float32"}}, "beta_regularizer": null, "gamma_regularizer": null, "beta_constraint": null, "gamma_constraint": null}, "name": "expanded_conv_3/expand/BatchNorm", "inbound_nodes": [[["expanded_conv_3/expand", 0, 0, {}]]]}, {"class_name": "ReLU", "config": {"name": "re_lu_6", "trainable": true, "dtype": "float32", "max_value": null, "negative_slope": 0.0, "threshold": 0.0}, "name": "re_lu_6", "inbound_nodes": [[["expanded_conv_3/expand/BatchNorm", 0, 0, {}]]]}, {"class_name": "ZeroPadding2D", "config": {"name": "expanded_conv_3/depthwise/pad", "trainable": true, "dtype": "float32", "padding": [[1, 2], [1, 2]], "data_format": "channels_last"}, "name": "expanded_conv_3/depthwise/pad", "inbound_nodes": [[["re_lu_6", 0, 0, {}]]]}, {"class_name": "DepthwiseConv2D", "config": {"name": "expanded_conv_3/depthwise", "trainable": true, "dtype": "float32", "kernel_size": [5, 5], "strides": [2, 2], "padding": "valid", "data_format": "channels_last", "dilation_rate": [1, 1], "groups": 1, "activation": "linear", "use_bias": false, "bias_initializer": {"class_name": "Zeros", "config": {"dtype": "float32"}}, "bias_regularizer": null, "activity_regularizer": null, "bias_constraint": null, "depth_multiplier": 1, "depthwise_initializer": {"class_name": "GlorotUniform", "config": {"seed": null, "dtype": "float32"}}, "depthwise_regularizer": null, "depthwise_constraint": null}, "name": "expanded_conv_3/depthwise", "inbound_nodes": [[["expanded_conv_3/depthwise/pad", 0, 0, {}]]]}, {"class_name": "BatchNormalization", "config": {"name": "expanded_conv_3/depthwise/BatchNorm", "trainable": true, "dtype": "float32", "axis": [3], "momentum": 0.999, "epsilon": 0.001, "center": true, "scale": true, "beta_initializer": {"class_name": "Zeros", "config": {"dtype": "float32"}}, "gamma_initializer": {"class_name": "Ones", "config": {"dtype": "float32"}}, "moving_mean_initializer": {"class_name": "Zeros", "config": {"dtype": "float32"}}, "moving_variance_initializer": {"class_name": "Ones", "config": {"dtype": "float32"}}, "beta_regularizer": null, "gamma_regularizer": null, "beta_constraint": null, "gamma_constraint": null}, "name": "expanded_conv_3/depthwise/BatchNorm", "inbound_nodes": [[["expanded_conv_3/depthwise", 0, 0, {}]]]}, {"class_name": "ReLU", "config": {"name": "re_lu_7", "trainable": true, "dtype": "float32", "max_value": null, "negative_slope": 0.0, "threshold": 0.0}, "name": "re_lu_7", "inbound_nodes": [[["expanded_conv_3/depthwise/BatchNorm", 0, 0, {}]]]}, {"class_name": "GlobalAveragePooling2D", "config": {"name": "expanded_conv_3/squeeze_excite/AvgPool", "trainable": true, "dtype": "float32", "data_format": "channels_last"}, "name": "expanded_conv_3/squeeze_excite/AvgPool", "inbound_nodes": [[["re_lu_7", 0, 0, {}]]]}, {"class_name": "Reshape", "config": {"name": "reshape", "trainable": true, "dtype": "float32", "target_shape": [1, 1, 72]}, "name": "reshape", "inbound_nodes": [[["expanded_conv_3/squeeze_excite/AvgPool", 0, 0, {}]]]}, {"class_name": "Conv2D", "config": {"name": "expanded_conv_3/squeeze_excite/Conv", "trainable": true, "dtype": "float32", "filters": 24, "kernel_size": [1, 1], "strides": [1, 1], "padding": "same", "data_format": "channels_last", "dilation_rate": [1, 1], "groups": 1, "activation": "linear", "use_bias": true, "kernel_initializer": {"class_name": "GlorotUniform", "config": {"seed": null, "dtype": "float32"}}, "bias_initializer": {"class_name": "Zeros", "config": {"dtype": "float32"}}, "kernel_regularizer": null, "bias_regularizer": null, "activity_regularizer": null, "kernel_constraint": null, "bias_constraint": null}, "name": "expanded_conv_3/squeeze_excite/Conv", "inbound_nodes": [[["reshape", 0, 0, {}]]]}, {"class_name": "ReLU", "config": {"name": "expanded_conv_3/squeeze_excite/Relu", "trainable": true, "dtype": "float32", "max_value": null, "negative_slope": 0.0, "threshold": 0.0}, "name": "expanded_conv_3/squeeze_excite/Relu", "inbound_nodes": [[["expanded_conv_3/squeeze_excite/Conv", 0, 0, {}]]]}, {"class_name": "Conv2D", "config": {"name": "expanded_conv_3/squeeze_excite/Conv_1", "trainable": true, "dtype": "float32", "filters": 72, "kernel_size": [1, 1], "strides": [1, 1], "padding": "same", "data_format": "channels_last", "dilation_rate": [1, 1], "groups": 1, "activation": "linear", "use_bias": true, "kernel_initializer": {"class_name": "GlorotUniform", "config": {"seed": null, "dtype": "float32"}}, "bias_initializer": {"class_name": "Zeros", "config": {"dtype": "float32"}}, "kernel_regularizer": null, "bias_regularizer": null, "activity_regularizer": null, "kernel_constraint": null, "bias_constraint": null}, "name": "expanded_conv_3/squeeze_excite/Conv_1", "inbound_nodes": [[["expanded_conv_3/squeeze_excite/Relu", 0, 0, {}]]]}, {"class_name": "TensorFlowOpLayer", "config": {"name": "add_1", "trainable": true, "dtype": null, "node_def": {"name": "add_1", "op": "AddV2", "input": ["expanded_conv_3/squeeze_excite/Conv_1/BiasAdd", "add_1/y"], "attr": {"T": {"type": "DT_FLOAT"}}}, "constants": {"1": 3.0}}, "name": "tf_op_layer_add_1", "inbound_nodes": [[["expanded_conv_3/squeeze_excite/Conv_1", 0, 0, {}]]]}, {"class_name": "ReLU", "config": {"name": "re_lu_8", "trainable": true, "dtype": "float32", "max_value": 6.0, "negative_slope": 0.0, "threshold": 0.0}, "name": "re_lu_8", "inbound_nodes": [[["tf_op_layer_add_1", 0, 0, {}]]]}, {"class_name": "TensorFlowOpLayer", "config": {"name": "mul_1", "trainable": true, "dtype": null, "node_def": {"name": "mul_1", "op": "Mul", "input": ["re_lu_8/Relu6", "mul_1/y"], "attr": {"T": {"type": "DT_FLOAT"}}}, "constants": {"1": 0.1666666716337204}}, "name": "tf_op_layer_mul_1", "inbound_nodes": [[["re_lu_8", 0, 0, {}]]]}, {"class_name": "Multiply", "config": {"name": "expanded_conv_3/squeeze_excite/Mul", "trainable": true, "dtype": "float32"}, "name": "expanded_conv_3/squeeze_excite/Mul", "inbound_nodes": [[["re_lu_7", 0, 0, {}], ["tf_op_layer_mul_1", 0, 0, {}]]]}, {"class_name": "Conv2D", "config": {"name": "expanded_conv_3/project", "trainable": true, "dtype": "float32", "filters": 40, "kernel_size": [1, 1], "strides": [1, 1], "padding": "same", "data_format": "channels_last", "dilation_rate": [1, 1], "groups": 1, "activation": "linear", "use_bias": false, "kernel_initializer": {"class_name": "GlorotUniform", "config": {"seed": null, "dtype": "float32"}}, "bias_initializer": {"class_name": "Zeros", "config": {"dtype": "float32"}}, "kernel_regularizer": null, "bias_regularizer": null, "activity_regularizer": null, "kernel_constraint": null, "bias_constraint": null}, "name": "expanded_conv_3/project", "inbound_nodes": [[["expanded_conv_3/squeeze_excite/Mul", 0, 0, {}]]]}, {"class_name": "BatchNormalization", "config": {"name": "expanded_conv_3/project/BatchNorm", "trainable": true, "dtype": "float32", "axis": [3], "momentum": 0.999, "epsilon": 0.001, "center": true, "scale": true, "beta_initializer": {"class_name": "Zeros", "config": {"dtype": "float32"}}, "gamma_initializer": {"class_name": "Ones", "config": {"dtype": "float32"}}, "moving_mean_initializer": {"class_name": "Zeros", "config": {"dtype": "float32"}}, "moving_variance_initializer": {"class_name": "Ones", "config": {"dtype": "float32"}}, "beta_regularizer": null, "gamma_regularizer": null, "beta_constraint": null, "gamma_constraint": null}, "name": "expanded_conv_3/project/BatchNorm", "inbound_nodes": [[["expanded_conv_3/project", 0, 0, {}]]]}, {"class_name": "Conv2D", "config": {"name": "expanded_conv_4/expand", "trainable": true, "dtype": "float32", "filters": 120, "kernel_size": [1, 1], "strides": [1, 1], "padding": "same", "data_format": "channels_last", "dilation_rate": [1, 1], "groups": 1, "activation": "linear", "use_bias": false, "kernel_initializer": {"class_name": "GlorotUniform", "config": {"seed": null, "dtype": "float32"}}, "bias_initializer": {"class_name": "Zeros", "config": {"dtype": "float32"}}, "kernel_regularizer": null, "bias_regularizer": null, "activity_regularizer": null, "kernel_constraint": null, "bias_constraint": null}, "name": "expanded_conv_4/expand", "inbound_nodes": [[["expanded_conv_3/project/BatchNorm", 0, 0, {}]]]}, {"class_name": "BatchNormalization", "config": {"name": "expanded_conv_4/expand/BatchNorm", "trainable": true, "dtype": "float32", "axis": [3], "momentum": 0.999, "epsilon": 0.001, "center": true, "scale": true, "beta_initializer": {"class_name": "Zeros", "config": {"dtype": "float32"}}, "gamma_initializer": {"class_name": "Ones", "config": {"dtype": "float32"}}, "moving_mean_initializer": {"class_name": "Zeros", "config": {"dtype": "float32"}}, "moving_variance_initializer": {"class_name": "Ones", "config": {"dtype": "float32"}}, "beta_regularizer": null, "gamma_regularizer": null, "beta_constraint": null, "gamma_constraint": null}, "name": "expanded_conv_4/expand/BatchNorm", "inbound_nodes": [[["expanded_conv_4/expand", 0, 0, {}]]]}, {"class_name": "ReLU", "config": {"name": "re_lu_9", "trainable": true, "dtype": "float32", "max_value": null, "negative_slope": 0.0, "threshold": 0.0}, "name": "re_lu_9", "inbound_nodes": [[["expanded_conv_4/expand/BatchNorm", 0, 0, {}]]]}, {"class_name": "DepthwiseConv2D", "config": {"name": "expanded_conv_4/depthwise", "trainable": true, "dtype": "float32", "kernel_size": [5, 5], "strides": [1, 1], "padding": "same", "data_format": "channels_last", "dilation_rate": [1, 1], "groups": 1, "activation": "linear", "use_bias": false, "bias_initializer": {"class_name": "Zeros", "config": {"dtype": "float32"}}, "bias_regularizer": null, "activity_regularizer": null, "bias_constraint": null, "depth_multiplier": 1, "depthwise_initializer": {"class_name": "GlorotUniform", "config": {"seed": null, "dtype": "float32"}}, "depthwise_regularizer": null, "depthwise_constraint": null}, "name": "expanded_conv_4/depthwise", "inbound_nodes": [[["re_lu_9", 0, 0, {}]]]}, {"class_name": "BatchNormalization", "config": {"name": "expanded_conv_4/depthwise/BatchNorm", "trainable": true, "dtype": "float32", "axis": [3], "momentum": 0.999, "epsilon": 0.001, "center": true, "scale": true, "beta_initializer": {"class_name": "Zeros", "config": {"dtype": "float32"}}, "gamma_initializer": {"class_name": "Ones", "config": {"dtype": "float32"}}, "moving_mean_initializer": {"class_name": "Zeros", "config": {"dtype": "float32"}}, "moving_variance_initializer": {"class_name": "Ones", "config": {"dtype": "float32"}}, "beta_regularizer": null, "gamma_regularizer": null, "beta_constraint": null, "gamma_constraint": null}, "name": "expanded_conv_4/depthwise/BatchNorm", "inbound_nodes": [[["expanded_conv_4/depthwise", 0, 0, {}]]]}, {"class_name": "ReLU", "config": {"name": "re_lu_10", "trainable": true, "dtype": "float32", "max_value": null, "negative_slope": 0.0, "threshold": 0.0}, "name": "re_lu_10", "inbound_nodes": [[["expanded_conv_4/depthwise/BatchNorm", 0, 0, {}]]]}, {"class_name": "GlobalAveragePooling2D", "config": {"name": "expanded_conv_4/squeeze_excite/AvgPool", "trainable": true, "dtype": "float32", "data_format": "channels_last"}, "name": "expanded_conv_4/squeeze_excite/AvgPool", "inbound_nodes": [[["re_lu_10", 0, 0, {}]]]}, {"class_name": "Reshape", "config": {"name": "reshape_1", "trainable": true, "dtype": "float32", "target_shape": [1, 1, 120]}, "name": "reshape_1", "inbound_nodes": [[["expanded_conv_4/squeeze_excite/AvgPool", 0, 0, {}]]]}, {"class_name": "Conv2D", "config": {"name": "expanded_conv_4/squeeze_excite/Conv", "trainable": true, "dtype": "float32", "filters": 32, "kernel_size": [1, 1], "strides": [1, 1], "padding": "same", "data_format": "channels_last", "dilation_rate": [1, 1], "groups": 1, "activation": "linear", "use_bias": true, "kernel_initializer": {"class_name": "GlorotUniform", "config": {"seed": null, "dtype": "float32"}}, "bias_initializer": {"class_name": "Zeros", "config": {"dtype": "float32"}}, "kernel_regularizer": null, "bias_regularizer": null, "activity_regularizer": null, "kernel_constraint": null, "bias_constraint": null}, "name": "expanded_conv_4/squeeze_excite/Conv", "inbound_nodes": [[["reshape_1", 0, 0, {}]]]}, {"class_name": "ReLU", "config": {"name": "expanded_conv_4/squeeze_excite/Relu", "trainable": true, "dtype": "float32", "max_value": null, "negative_slope": 0.0, "threshold": 0.0}, "name": "expanded_conv_4/squeeze_excite/Relu", "inbound_nodes": [[["expanded_conv_4/squeeze_excite/Conv", 0, 0, {}]]]}, {"class_name": "Conv2D", "config": {"name": "expanded_conv_4/squeeze_excite/Conv_1", "trainable": true, "dtype": "float32", "filters": 120, "kernel_size": [1, 1], "strides": [1, 1], "padding": "same", "data_format": "channels_last", "dilation_rate": [1, 1], "groups": 1, "activation": "linear", "use_bias": true, "kernel_initializer": {"class_name": "GlorotUniform", "config": {"seed": null, "dtype": "float32"}}, "bias_initializer": {"class_name": "Zeros", "config": {"dtype": "float32"}}, "kernel_regularizer": null, "bias_regularizer": null, "activity_regularizer": null, "kernel_constraint": null, "bias_constraint": null}, "name": "expanded_conv_4/squeeze_excite/Conv_1", "inbound_nodes": [[["expanded_conv_4/squeeze_excite/Relu", 0, 0, {}]]]}, {"class_name": "TensorFlowOpLayer", "config": {"name": "add_2", "trainable": true, "dtype": null, "node_def": {"name": "add_2", "op": "AddV2", "input": ["expanded_conv_4/squeeze_excite/Conv_1/BiasAdd", "add_2/y"], "attr": {"T": {"type": "DT_FLOAT"}}}, "constants": {"1": 3.0}}, "name": "tf_op_layer_add_2", "inbound_nodes": [[["expanded_conv_4/squeeze_excite/Conv_1", 0, 0, {}]]]}, {"class_name": "ReLU", "config": {"name": "re_lu_11", "trainable": true, "dtype": "float32", "max_value": 6.0, "negative_slope": 0.0, "threshold": 0.0}, "name": "re_lu_11", "inbound_nodes": [[["tf_op_layer_add_2", 0, 0, {}]]]}, {"class_name": "TensorFlowOpLayer", "config": {"name": "mul_2", "trainable": true, "dtype": null, "node_def": {"name": "mul_2", "op": "Mul", "input": ["re_lu_11/Relu6", "mul_2/y"], "attr": {"T": {"type": "DT_FLOAT"}}}, "constants": {"1": 0.1666666716337204}}, "name": "tf_op_layer_mul_2", "inbound_nodes": [[["re_lu_11", 0, 0, {}]]]}, {"class_name": "Multiply", "config": {"name": "expanded_conv_4/squeeze_excite/Mul", "trainable": true, "dtype": "float32"}, "name": "expanded_conv_4/squeeze_excite/Mul", "inbound_nodes": [[["re_lu_10", 0, 0, {}], ["tf_op_layer_mul_2", 0, 0, {}]]]}, {"class_name": "Conv2D", "config": {"name": "expanded_conv_4/project", "trainable": true, "dtype": "float32", "filters": 40, "kernel_size": [1, 1], "strides": [1, 1], "padding": "same", "data_format": "channels_last", "dilation_rate": [1, 1], "groups": 1, "activation": "linear", "use_bias": false, "kernel_initializer": {"class_name": "GlorotUniform", "config": {"seed": null, "dtype": "float32"}}, "bias_initializer": {"class_name": "Zeros", "config": {"dtype": "float32"}}, "kernel_regularizer": null, "bias_regularizer": null, "activity_regularizer": null, "kernel_constraint": null, "bias_constraint": null}, "name": "expanded_conv_4/project", "inbound_nodes": [[["expanded_conv_4/squeeze_excite/Mul", 0, 0, {}]]]}, {"class_name": "BatchNormalization", "config": {"name": "expanded_conv_4/project/BatchNorm", "trainable": true, "dtype": "float32", "axis": [3], "momentum": 0.999, "epsilon": 0.001, "center": true, "scale": true, "beta_initializer": {"class_name": "Zeros", "config": {"dtype": "float32"}}, "gamma_initializer": {"class_name": "Ones", "config": {"dtype": "float32"}}, "moving_mean_initializer": {"class_name": "Zeros", "config": {"dtype": "float32"}}, "moving_variance_initializer": {"class_name": "Ones", "config": {"dtype": "float32"}}, "beta_regularizer": null, "gamma_regularizer": null, "beta_constraint": null, "gamma_constraint": null}, "name": "expanded_conv_4/project/BatchNorm", "inbound_nodes": [[["expanded_conv_4/project", 0, 0, {}]]]}, {"class_name": "Add", "config": {"name": "expanded_conv_4/Add", "trainable": true, "dtype": "float32"}, "name": "expanded_conv_4/Add", "inbound_nodes": [[["expanded_conv_3/project/BatchNorm", 0, 0, {}], ["expanded_conv_4/project/BatchNorm", 0, 0, {}]]]}, {"class_name": "Conv2D", "config": {"name": "expanded_conv_5/expand", "trainable": true, "dtype": "float32", "filters": 120, "kernel_size": [1, 1], "strides": [1, 1], "padding": "same", "data_format": "channels_last", "dilation_rate": [1, 1], "groups": 1, "activation": "linear", "use_bias": false, "kernel_initializer": {"class_name": "GlorotUniform", "config": {"seed": null, "dtype": "float32"}}, "bias_initializer": {"class_name": "Zeros", "config": {"dtype": "float32"}}, "kernel_regularizer": null, "bias_regularizer": null, "activity_regularizer": null, "kernel_constraint": null, "bias_constraint": null}, "name": "expanded_conv_5/expand", "inbound_nodes": [[["expanded_conv_4/Add", 0, 0, {}]]]}, {"class_name": "BatchNormalization", "config": {"name": "expanded_conv_5/expand/BatchNorm", "trainable": true, "dtype": "float32", "axis": [3], "momentum": 0.999, "epsilon": 0.001, "center": true, "scale": true, "beta_initializer": {"class_name": "Zeros", "config": {"dtype": "float32"}}, "gamma_initializer": {"class_name": "Ones", "config": {"dtype": "float32"}}, "moving_mean_initializer": {"class_name": "Zeros", "config": {"dtype": "float32"}}, "moving_variance_initializer": {"class_name": "Ones", "config": {"dtype": "float32"}}, "beta_regularizer": null, "gamma_regularizer": null, "beta_constraint": null, "gamma_constraint": null}, "name": "expanded_conv_5/expand/BatchNorm", "inbound_nodes": [[["expanded_conv_5/expand", 0, 0, {}]]]}, {"class_name": "ReLU", "config": {"name": "re_lu_12", "trainable": true, "dtype": "float32", "max_value": null, "negative_slope": 0.0, "threshold": 0.0}, "name": "re_lu_12", "inbound_nodes": [[["expanded_conv_5/expand/BatchNorm", 0, 0, {}]]]}, {"class_name": "DepthwiseConv2D", "config": {"name": "expanded_conv_5/depthwise", "trainable": true, "dtype": "float32", "kernel_size": [5, 5], "strides": [1, 1], "padding": "same", "data_format": "channels_last", "dilation_rate": [1, 1], "groups": 1, "activation": "linear", "use_bias": false, "bias_initializer": {"class_name": "Zeros", "config": {"dtype": "float32"}}, "bias_regularizer": null, "activity_regularizer": null, "bias_constraint": null, "depth_multiplier": 1, "depthwise_initializer": {"class_name": "GlorotUniform", "config": {"seed": null, "dtype": "float32"}}, "depthwise_regularizer": null, "depthwise_constraint": null}, "name": "expanded_conv_5/depthwise", "inbound_nodes": [[["re_lu_12", 0, 0, {}]]]}, {"class_name": "BatchNormalization", "config": {"name": "expanded_conv_5/depthwise/BatchNorm", "trainable": true, "dtype": "float32", "axis": [3], "momentum": 0.999, "epsilon": 0.001, "center": true, "scale": true, "beta_initializer": {"class_name": "Zeros", "config": {"dtype": "float32"}}, "gamma_initializer": {"class_name": "Ones", "config": {"dtype": "float32"}}, "moving_mean_initializer": {"class_name": "Zeros", "config": {"dtype": "float32"}}, "moving_variance_initializer": {"class_name": "Ones", "config": {"dtype": "float32"}}, "beta_regularizer": null, "gamma_regularizer": null, "beta_constraint": null, "gamma_constraint": null}, "name": "expanded_conv_5/depthwise/BatchNorm", "inbound_nodes": [[["expanded_conv_5/depthwise", 0, 0, {}]]]}, {"class_name": "ReLU", "config": {"name": "re_lu_13", "trainable": true, "dtype": "float32", "max_value": null, "negative_slope": 0.0, "threshold": 0.0}, "name": "re_lu_13", "inbound_nodes": [[["expanded_conv_5/depthwise/BatchNorm", 0, 0, {}]]]}, {"class_name": "GlobalAveragePooling2D", "config": {"name": "expanded_conv_5/squeeze_excite/AvgPool", "trainable": true, "dtype": "float32", "data_format": "channels_last"}, "name": "expanded_conv_5/squeeze_excite/AvgPool", "inbound_nodes": [[["re_lu_13", 0, 0, {}]]]}, {"class_name": "Reshape", "config": {"name": "reshape_2", "trainable": true, "dtype": "float32", "target_shape": [1, 1, 120]}, "name": "reshape_2", "inbound_nodes": [[["expanded_conv_5/squeeze_excite/AvgPool", 0, 0, {}]]]}, {"class_name": "Conv2D", "config": {"name": "expanded_conv_5/squeeze_excite/Conv", "trainable": true, "dtype": "float32", "filters": 32, "kernel_size": [1, 1], "strides": [1, 1], "padding": "same", "data_format": "channels_last", "dilation_rate": [1, 1], "groups": 1, "activation": "linear", "use_bias": true, "kernel_initializer": {"class_name": "GlorotUniform", "config": {"seed": null, "dtype": "float32"}}, "bias_initializer": {"class_name": "Zeros", "config": {"dtype": "float32"}}, "kernel_regularizer": null, "bias_regularizer": null, "activity_regularizer": null, "kernel_constraint": null, "bias_constraint": null}, "name": "expanded_conv_5/squeeze_excite/Conv", "inbound_nodes": [[["reshape_2", 0, 0, {}]]]}, {"class_name": "ReLU", "config": {"name": "expanded_conv_5/squeeze_excite/Relu", "trainable": true, "dtype": "float32", "max_value": null, "negative_slope": 0.0, "threshold": 0.0}, "name": "expanded_conv_5/squeeze_excite/Relu", "inbound_nodes": [[["expanded_conv_5/squeeze_excite/Conv", 0, 0, {}]]]}, {"class_name": "Conv2D", "config": {"name": "expanded_conv_5/squeeze_excite/Conv_1", "trainable": true, "dtype": "float32", "filters": 120, "kernel_size": [1, 1], "strides": [1, 1], "padding": "same", "data_format": "channels_last", "dilation_rate": [1, 1], "groups": 1, "activation": "linear", "use_bias": true, "kernel_initializer": {"class_name": "GlorotUniform", "config": {"seed": null, "dtype": "float32"}}, "bias_initializer": {"class_name": "Zeros", "config": {"dtype": "float32"}}, "kernel_regularizer": null, "bias_regularizer": null, "activity_regularizer": null, "kernel_constraint": null, "bias_constraint": null}, "name": "expanded_conv_5/squeeze_excite/Conv_1", "inbound_nodes": [[["expanded_conv_5/squeeze_excite/Relu", 0, 0, {}]]]}, {"class_name": "TensorFlowOpLayer", "config": {"name": "add_3", "trainable": true, "dtype": null, "node_def": {"name": "add_3", "op": "AddV2", "input": ["expanded_conv_5/squeeze_excite/Conv_1/BiasAdd", "add_3/y"], "attr": {"T": {"type": "DT_FLOAT"}}}, "constants": {"1": 3.0}}, "name": "tf_op_layer_add_3", "inbound_nodes": [[["expanded_conv_5/squeeze_excite/Conv_1", 0, 0, {}]]]}, {"class_name": "ReLU", "config": {"name": "re_lu_14", "trainable": true, "dtype": "float32", "max_value": 6.0, "negative_slope": 0.0, "threshold": 0.0}, "name": "re_lu_14", "inbound_nodes": [[["tf_op_layer_add_3", 0, 0, {}]]]}, {"class_name": "TensorFlowOpLayer", "config": {"name": "mul_3", "trainable": true, "dtype": null, "node_def": {"name": "mul_3", "op": "Mul", "input": ["re_lu_14/Relu6", "mul_3/y"], "attr": {"T": {"type": "DT_FLOAT"}}}, "constants": {"1": 0.1666666716337204}}, "name": "tf_op_layer_mul_3", "inbound_nodes": [[["re_lu_14", 0, 0, {}]]]}, {"class_name": "Multiply", "config": {"name": "expanded_conv_5/squeeze_excite/Mul", "trainable": true, "dtype": "float32"}, "name": "expanded_conv_5/squeeze_excite/Mul", "inbound_nodes": [[["re_lu_13", 0, 0, {}], ["tf_op_layer_mul_3", 0, 0, {}]]]}, {"class_name": "Conv2D", "config": {"name": "expanded_conv_5/project", "trainable": true, "dtype": "float32", "filters": 40, "kernel_size": [1, 1], "strides": [1, 1], "padding": "same", "data_format": "channels_last", "dilation_rate": [1, 1], "groups": 1, "activation": "linear", "use_bias": false, "kernel_initializer": {"class_name": "GlorotUniform", "config": {"seed": null, "dtype": "float32"}}, "bias_initializer": {"class_name": "Zeros", "config": {"dtype": "float32"}}, "kernel_regularizer": null, "bias_regularizer": null, "activity_regularizer": null, "kernel_constraint": null, "bias_constraint": null}, "name": "expanded_conv_5/project", "inbound_nodes": [[["expanded_conv_5/squeeze_excite/Mul", 0, 0, {}]]]}, {"class_name": "BatchNormalization", "config": {"name": "expanded_conv_5/project/BatchNorm", "trainable": true, "dtype": "float32", "axis": [3], "momentum": 0.999, "epsilon": 0.001, "center": true, "scale": true, "beta_initializer": {"class_name": "Zeros", "config": {"dtype": "float32"}}, "gamma_initializer": {"class_name": "Ones", "config": {"dtype": "float32"}}, "moving_mean_initializer": {"class_name": "Zeros", "config": {"dtype": "float32"}}, "moving_variance_initializer": {"class_name": "Ones", "config": {"dtype": "float32"}}, "beta_regularizer": null, "gamma_regularizer": null, "beta_constraint": null, "gamma_constraint": null}, "name": "expanded_conv_5/project/BatchNorm", "inbound_nodes": [[["expanded_conv_5/project", 0, 0, {}]]]}, {"class_name": "Add", "config": {"name": "expanded_conv_5/Add", "trainable": true, "dtype": "float32"}, "name": "expanded_conv_5/Add", "inbound_nodes": [[["expanded_conv_4/Add", 0, 0, {}], ["expanded_conv_5/project/BatchNorm", 0, 0, {}]]]}, {"class_name": "Conv2D", "config": {"name": "expanded_conv_6/expand", "trainable": true, "dtype": "float32", "filters": 240, "kernel_size": [1, 1], "strides": [1, 1], "padding": "same", "data_format": "channels_last", "dilation_rate": [1, 1], "groups": 1, "activation": "linear", "use_bias": false, "kernel_initializer": {"class_name": "GlorotUniform", "config": {"seed": null, "dtype": "float32"}}, "bias_initializer": {"class_name": "Zeros", "config": {"dtype": "float32"}}, "kernel_regularizer": null, "bias_regularizer": null, "activity_regularizer": null, "kernel_constraint": null, "bias_constraint": null}, "name": "expanded_conv_6/expand", "inbound_nodes": [[["expanded_conv_5/Add", 0, 0, {}]]]}, {"class_name": "BatchNormalization", "config": {"name": "expanded_conv_6/expand/BatchNorm", "trainable": true, "dtype": "float32", "axis": [3], "momentum": 0.999, "epsilon": 0.001, "center": true, "scale": true, "beta_initializer": {"class_name": "Zeros", "config": {"dtype": "float32"}}, "gamma_initializer": {"class_name": "Ones", "config": {"dtype": "float32"}}, "moving_mean_initializer": {"class_name": "Zeros", "config": {"dtype": "float32"}}, "moving_variance_initializer": {"class_name": "Ones", "config": {"dtype": "float32"}}, "beta_regularizer": null, "gamma_regularizer": null, "beta_constraint": null, "gamma_constraint": null}, "name": "expanded_conv_6/expand/BatchNorm", "inbound_nodes": [[["expanded_conv_6/expand", 0, 0, {}]]]}, {"class_name": "TensorFlowOpLayer", "config": {"name": "add_4", "trainable": true, "dtype": null, "node_def": {"name": "add_4", "op": "AddV2", "input": ["expanded_conv_6/expand/BatchNorm/cond/Merge", "add_4/y"], "attr": {"T": {"type": "DT_FLOAT"}}}, "constants": {"1": 3.0}}, "name": "tf_op_layer_add_4", "inbound_nodes": [[["expanded_conv_6/expand/BatchNorm", 0, 0, {}]]]}, {"class_name": "ReLU", "config": {"name": "re_lu_15", "trainable": true, "dtype": "float32", "max_value": 6.0, "negative_slope": 0.0, "threshold": 0.0}, "name": "re_lu_15", "inbound_nodes": [[["tf_op_layer_add_4", 0, 0, {}]]]}, {"class_name": "TensorFlowOpLayer", "config": {"name": "mul_4", "trainable": true, "dtype": null, "node_def": {"name": "mul_4", "op": "Mul", "input": ["re_lu_15/Relu6", "mul_4/y"], "attr": {"T": {"type": "DT_FLOAT"}}}, "constants": {"1": 0.1666666716337204}}, "name": "tf_op_layer_mul_4", "inbound_nodes": [[["re_lu_15", 0, 0, {}]]]}, {"class_name": "Multiply", "config": {"name": "multiply_1", "trainable": true, "dtype": "float32"}, "name": "multiply_1", "inbound_nodes": [[["tf_op_layer_mul_4", 0, 0, {}], ["expanded_conv_6/expand/BatchNorm", 0, 0, {}]]]}, {"class_name": "ZeroPadding2D", "config": {"name": "expanded_conv_6/depthwise/pad", "trainable": true, "dtype": "float32", "padding": [[0, 1], [0, 1]], "data_format": "channels_last"}, "name": "expanded_conv_6/depthwise/pad", "inbound_nodes": [[["multiply_1", 0, 0, {}]]]}, {"class_name": "DepthwiseConv2D", "config": {"name": "expanded_conv_6/depthwise", "trainable": true, "dtype": "float32", "kernel_size": [3, 3], "strides": [2, 2], "padding": "valid", "data_format": "channels_last", "dilation_rate": [1, 1], "groups": 1, "activation": "linear", "use_bias": false, "bias_initializer": {"class_name": "Zeros", "config": {"dtype": "float32"}}, "bias_regularizer": null, "activity_regularizer": null, "bias_constraint": null, "depth_multiplier": 1, "depthwise_initializer": {"class_name": "GlorotUniform", "config": {"seed": null, "dtype": "float32"}}, "depthwise_regularizer": null, "depthwise_constraint": null}, "name": "expanded_conv_6/depthwise", "inbound_nodes": [[["expanded_conv_6/depthwise/pad", 0, 0, {}]]]}, {"class_name": "BatchNormalization", "config": {"name": "expanded_conv_6/depthwise/BatchNorm", "trainable": true, "dtype": "float32", "axis": [3], "momentum": 0.999, "epsilon": 0.001, "center": true, "scale": true, "beta_initializer": {"class_name": "Zeros", "config": {"dtype": "float32"}}, "gamma_initializer": {"class_name": "Ones", "config": {"dtype": "float32"}}, "moving_mean_initializer": {"class_name": "Zeros", "config": {"dtype": "float32"}}, "moving_variance_initializer": {"class_name": "Ones", "config": {"dtype": "float32"}}, "beta_regularizer": null, "gamma_regularizer": null, "beta_constraint": null, "gamma_constraint": null}, "name": "expanded_conv_6/depthwise/BatchNorm", "inbound_nodes": [[["expanded_conv_6/depthwise", 0, 0, {}]]]}, {"class_name": "TensorFlowOpLayer", "config": {"name": "add_5", "trainable": true, "dtype": null, "node_def": {"name": "add_5", "op": "AddV2", "input": ["expanded_conv_6/depthwise/BatchNorm/cond/Merge", "add_5/y"], "attr": {"T": {"type": "DT_FLOAT"}}}, "constants": {"1": 3.0}}, "name": "tf_op_layer_add_5", "inbound_nodes": [[["expanded_conv_6/depthwise/BatchNorm", 0, 0, {}]]]}, {"class_name": "ReLU", "config": {"name": "re_lu_16", "trainable": true, "dtype": "float32", "max_value": 6.0, "negative_slope": 0.0, "threshold": 0.0}, "name": "re_lu_16", "inbound_nodes": [[["tf_op_layer_add_5", 0, 0, {}]]]}, {"class_name": "TensorFlowOpLayer", "config": {"name": "mul_5", "trainable": true, "dtype": null, "node_def": {"name": "mul_5", "op": "Mul", "input": ["re_lu_16/Relu6", "mul_5/y"], "attr": {"T": {"type": "DT_FLOAT"}}}, "constants": {"1": 0.1666666716337204}}, "name": "tf_op_layer_mul_5", "inbound_nodes": [[["re_lu_16", 0, 0, {}]]]}, {"class_name": "Multiply", "config": {"name": "multiply_2", "trainable": true, "dtype": "float32"}, "name": "multiply_2", "inbound_nodes": [[["tf_op_layer_mul_5", 0, 0, {}], ["expanded_conv_6/depthwise/BatchNorm", 0, 0, {}]]]}, {"class_name": "Conv2D", "config": {"name": "expanded_conv_6/project", "trainable": true, "dtype": "float32", "filters": 80, "kernel_size": [1, 1], "strides": [1, 1], "padding": "same", "data_format": "channels_last", "dilation_rate": [1, 1], "groups": 1, "activation": "linear", "use_bias": false, "kernel_initializer": {"class_name": "GlorotUniform", "config": {"seed": null, "dtype": "float32"}}, "bias_initializer": {"class_name": "Zeros", "config": {"dtype": "float32"}}, "kernel_regularizer": null, "bias_regularizer": null, "activity_regularizer": null, "kernel_constraint": null, "bias_constraint": null}, "name": "expanded_conv_6/project", "inbound_nodes": [[["multiply_2", 0, 0, {}]]]}, {"class_name": "BatchNormalization", "config": {"name": "expanded_conv_6/project/BatchNorm", "trainable": true, "dtype": "float32", "axis": [3], "momentum": 0.999, "epsilon": 0.001, "center": true, "scale": true, "beta_initializer": {"class_name": "Zeros", "config": {"dtype": "float32"}}, "gamma_initializer": {"class_name": "Ones", "config": {"dtype": "float32"}}, "moving_mean_initializer": {"class_name": "Zeros", "config": {"dtype": "float32"}}, "moving_variance_initializer": {"class_name": "Ones", "config": {"dtype": "float32"}}, "beta_regularizer": null, "gamma_regularizer": null, "beta_constraint": null, "gamma_constraint": null}, "name": "expanded_conv_6/project/BatchNorm", "inbound_nodes": [[["expanded_conv_6/project", 0, 0, {}]]]}, {"class_name": "Conv2D", "config": {"name": "expanded_conv_7/expand", "trainable": true, "dtype": "float32", "filters": 200, "kernel_size": [1, 1], "strides": [1, 1], "padding": "same", "data_format": "channels_last", "dilation_rate": [1, 1], "groups": 1, "activation": "linear", "use_bias": false, "kernel_initializer": {"class_name": "GlorotUniform", "config": {"seed": null, "dtype": "float32"}}, "bias_initializer": {"class_name": "Zeros", "config": {"dtype": "float32"}}, "kernel_regularizer": null, "bias_regularizer": null, "activity_regularizer": null, "kernel_constraint": null, "bias_constraint": null}, "name": "expanded_conv_7/expand", "inbound_nodes": [[["expanded_conv_6/project/BatchNorm", 0, 0, {}]]]}, {"class_name": "BatchNormalization", "config": {"name": "expanded_conv_7/expand/BatchNorm", "trainable": true, "dtype": "float32", "axis": [3], "momentum": 0.999, "epsilon": 0.001, "center": true, "scale": true, "beta_initializer": {"class_name": "Zeros", "config": {"dtype": "float32"}}, "gamma_initializer": {"class_name": "Ones", "config": {"dtype": "float32"}}, "moving_mean_initializer": {"class_name": "Zeros", "config": {"dtype": "float32"}}, "moving_variance_initializer": {"class_name": "Ones", "config": {"dtype": "float32"}}, "beta_regularizer": null, "gamma_regularizer": null, "beta_constraint": null, "gamma_constraint": null}, "name": "expanded_conv_7/expand/BatchNorm", "inbound_nodes": [[["expanded_conv_7/expand", 0, 0, {}]]]}, {"class_name": "TensorFlowOpLayer", "config": {"name": "add_6", "trainable": true, "dtype": null, "node_def": {"name": "add_6", "op": "AddV2", "input": ["expanded_conv_7/expand/BatchNorm/cond/Merge", "add_6/y"], "attr": {"T": {"type": "DT_FLOAT"}}}, "constants": {"1": 3.0}}, "name": "tf_op_layer_add_6", "inbound_nodes": [[["expanded_conv_7/expand/BatchNorm", 0, 0, {}]]]}, {"class_name": "ReLU", "config": {"name": "re_lu_17", "trainable": true, "dtype": "float32", "max_value": 6.0, "negative_slope": 0.0, "threshold": 0.0}, "name": "re_lu_17", "inbound_nodes": [[["tf_op_layer_add_6", 0, 0, {}]]]}, {"class_name": "TensorFlowOpLayer", "config": {"name": "mul_6", "trainable": true, "dtype": null, "node_def": {"name": "mul_6", "op": "Mul", "input": ["re_lu_17/Relu6", "mul_6/y"], "attr": {"T": {"type": "DT_FLOAT"}}}, "constants": {"1": 0.1666666716337204}}, "name": "tf_op_layer_mul_6", "inbound_nodes": [[["re_lu_17", 0, 0, {}]]]}, {"class_name": "Multiply", "config": {"name": "multiply_3", "trainable": true, "dtype": "float32"}, "name": "multiply_3", "inbound_nodes": [[["tf_op_layer_mul_6", 0, 0, {}], ["expanded_conv_7/expand/BatchNorm", 0, 0, {}]]]}, {"class_name": "DepthwiseConv2D", "config": {"name": "expanded_conv_7/depthwise", "trainable": true, "dtype": "float32", "kernel_size": [3, 3], "strides": [1, 1], "padding": "same", "data_format": "channels_last", "dilation_rate": [1, 1], "groups": 1, "activation": "linear", "use_bias": false, "bias_initializer": {"class_name": "Zeros", "config": {"dtype": "float32"}}, "bias_regularizer": null, "activity_regularizer": null, "bias_constraint": null, "depth_multiplier": 1, "depthwise_initializer": {"class_name": "GlorotUniform", "config": {"seed": null, "dtype": "float32"}}, "depthwise_regularizer": null, "depthwise_constraint": null}, "name": "expanded_conv_7/depthwise", "inbound_nodes": [[["multiply_3", 0, 0, {}]]]}, {"class_name": "BatchNormalization", "config": {"name": "expanded_conv_7/depthwise/BatchNorm", "trainable": true, "dtype": "float32", "axis": [3], "momentum": 0.999, "epsilon": 0.001, "center": true, "scale": true, "beta_initializer": {"class_name": "Zeros", "config": {"dtype": "float32"}}, "gamma_initializer": {"class_name": "Ones", "config": {"dtype": "float32"}}, "moving_mean_initializer": {"class_name": "Zeros", "config": {"dtype": "float32"}}, "moving_variance_initializer": {"class_name": "Ones", "config": {"dtype": "float32"}}, "beta_regularizer": null, "gamma_regularizer": null, "beta_constraint": null, "gamma_constraint": null}, "name": "expanded_conv_7/depthwise/BatchNorm", "inbound_nodes": [[["expanded_conv_7/depthwise", 0, 0, {}]]]}, {"class_name": "TensorFlowOpLayer", "config": {"name": "add_7", "trainable": true, "dtype": null, "node_def": {"name": "add_7", "op": "AddV2", "input": ["expanded_conv_7/depthwise/BatchNorm/cond/Merge", "add_7/y"], "attr": {"T": {"type": "DT_FLOAT"}}}, "constants": {"1": 3.0}}, "name": "tf_op_layer_add_7", "inbound_nodes": [[["expanded_conv_7/depthwise/BatchNorm", 0, 0, {}]]]}, {"class_name": "ReLU", "config": {"name": "re_lu_18", "trainable": true, "dtype": "float32", "max_value": 6.0, "negative_slope": 0.0, "threshold": 0.0}, "name": "re_lu_18", "inbound_nodes": [[["tf_op_layer_add_7", 0, 0, {}]]]}, {"class_name": "TensorFlowOpLayer", "config": {"name": "mul_7", "trainable": true, "dtype": null, "node_def": {"name": "mul_7", "op": "Mul", "input": ["re_lu_18/Relu6", "mul_7/y"], "attr": {"T": {"type": "DT_FLOAT"}}}, "constants": {"1": 0.1666666716337204}}, "name": "tf_op_layer_mul_7", "inbound_nodes": [[["re_lu_18", 0, 0, {}]]]}, {"class_name": "Multiply", "config": {"name": "multiply_4", "trainable": true, "dtype": "float32"}, "name": "multiply_4", "inbound_nodes": [[["tf_op_layer_mul_7", 0, 0, {}], ["expanded_conv_7/depthwise/BatchNorm", 0, 0, {}]]]}, {"class_name": "Conv2D", "config": {"name": "expanded_conv_7/project", "trainable": true, "dtype": "float32", "filters": 80, "kernel_size": [1, 1], "strides": [1, 1], "padding": "same", "data_format": "channels_last", "dilation_rate": [1, 1], "groups": 1, "activation": "linear", "use_bias": false, "kernel_initializer": {"class_name": "GlorotUniform", "config": {"seed": null, "dtype": "float32"}}, "bias_initializer": {"class_name": "Zeros", "config": {"dtype": "float32"}}, "kernel_regularizer": null, "bias_regularizer": null, "activity_regularizer": null, "kernel_constraint": null, "bias_constraint": null}, "name": "expanded_conv_7/project", "inbound_nodes": [[["multiply_4", 0, 0, {}]]]}, {"class_name": "BatchNormalization", "config": {"name": "expanded_conv_7/project/BatchNorm", "trainable": true, "dtype": "float32", "axis": [3], "momentum": 0.999, "epsilon": 0.001, "center": true, "scale": true, "beta_initializer": {"class_name": "Zeros", "config": {"dtype": "float32"}}, "gamma_initializer": {"class_name": "Ones", "config": {"dtype": "float32"}}, "moving_mean_initializer": {"class_name": "Zeros", "config": {"dtype": "float32"}}, "moving_variance_initializer": {"class_name": "Ones", "config": {"dtype": "float32"}}, "beta_regularizer": null, "gamma_regularizer": null, "beta_constraint": null, "gamma_constraint": null}, "name": "expanded_conv_7/project/BatchNorm", "inbound_nodes": [[["expanded_conv_7/project", 0, 0, {}]]]}, {"class_name": "Add", "config": {"name": "expanded_conv_7/Add", "trainable": true, "dtype": "float32"}, "name": "expanded_conv_7/Add", "inbound_nodes": [[["expanded_conv_6/project/BatchNorm", 0, 0, {}], ["expanded_conv_7/project/BatchNorm", 0, 0, {}]]]}, {"class_name": "Conv2D", "config": {"name": "expanded_conv_8/expand", "trainable": true, "dtype": "float32", "filters": 184, "kernel_size": [1, 1], "strides": [1, 1], "padding": "same", "data_format": "channels_last", "dilation_rate": [1, 1], "groups": 1, "activation": "linear", "use_bias": false, "kernel_initializer": {"class_name": "GlorotUniform", "config": {"seed": null, "dtype": "float32"}}, "bias_initializer": {"class_name": "Zeros", "config": {"dtype": "float32"}}, "kernel_regularizer": null, "bias_regularizer": null, "activity_regularizer": null, "kernel_constraint": null, "bias_constraint": null}, "name": "expanded_conv_8/expand", "inbound_nodes": [[["expanded_conv_7/Add", 0, 0, {}]]]}, {"class_name": "BatchNormalization", "config": {"name": "expanded_conv_8/expand/BatchNorm", "trainable": true, "dtype": "float32", "axis": [3], "momentum": 0.999, "epsilon": 0.001, "center": true, "scale": true, "beta_initializer": {"class_name": "Zeros", "config": {"dtype": "float32"}}, "gamma_initializer": {"class_name": "Ones", "config": {"dtype": "float32"}}, "moving_mean_initializer": {"class_name": "Zeros", "config": {"dtype": "float32"}}, "moving_variance_initializer": {"class_name": "Ones", "config": {"dtype": "float32"}}, "beta_regularizer": null, "gamma_regularizer": null, "beta_constraint": null, "gamma_constraint": null}, "name": "expanded_conv_8/expand/BatchNorm", "inbound_nodes": [[["expanded_conv_8/expand", 0, 0, {}]]]}, {"class_name": "TensorFlowOpLayer", "config": {"name": "add_8", "trainable": true, "dtype": null, "node_def": {"name": "add_8", "op": "AddV2", "input": ["expanded_conv_8/expand/BatchNorm/cond/Merge", "add_8/y"], "attr": {"T": {"type": "DT_FLOAT"}}}, "constants": {"1": 3.0}}, "name": "tf_op_layer_add_8", "inbound_nodes": [[["expanded_conv_8/expand/BatchNorm", 0, 0, {}]]]}, {"class_name": "ReLU", "config": {"name": "re_lu_19", "trainable": true, "dtype": "float32", "max_value": 6.0, "negative_slope": 0.0, "threshold": 0.0}, "name": "re_lu_19", "inbound_nodes": [[["tf_op_layer_add_8", 0, 0, {}]]]}, {"class_name": "TensorFlowOpLayer", "config": {"name": "mul_8", "trainable": true, "dtype": null, "node_def": {"name": "mul_8", "op": "Mul", "input": ["re_lu_19/Relu6", "mul_8/y"], "attr": {"T": {"type": "DT_FLOAT"}}}, "constants": {"1": 0.1666666716337204}}, "name": "tf_op_layer_mul_8", "inbound_nodes": [[["re_lu_19", 0, 0, {}]]]}, {"class_name": "Multiply", "config": {"name": "multiply_5", "trainable": true, "dtype": "float32"}, "name": "multiply_5", "inbound_nodes": [[["tf_op_layer_mul_8", 0, 0, {}], ["expanded_conv_8/expand/BatchNorm", 0, 0, {}]]]}, {"class_name": "DepthwiseConv2D", "config": {"name": "expanded_conv_8/depthwise", "trainable": true, "dtype": "float32", "kernel_size": [3, 3], "strides": [1, 1], "padding": "same", "data_format": "channels_last", "dilation_rate": [1, 1], "groups": 1, "activation": "linear", "use_bias": false, "bias_initializer": {"class_name": "Zeros", "config": {"dtype": "float32"}}, "bias_regularizer": null, "activity_regularizer": null, "bias_constraint": null, "depth_multiplier": 1, "depthwise_initializer": {"class_name": "GlorotUniform", "config": {"seed": null, "dtype": "float32"}}, "depthwise_regularizer": null, "depthwise_constraint": null}, "name": "expanded_conv_8/depthwise", "inbound_nodes": [[["multiply_5", 0, 0, {}]]]}, {"class_name": "BatchNormalization", "config": {"name": "expanded_conv_8/depthwise/BatchNorm", "trainable": true, "dtype": "float32", "axis": [3], "momentum": 0.999, "epsilon": 0.001, "center": true, "scale": true, "beta_initializer": {"class_name": "Zeros", "config": {"dtype": "float32"}}, "gamma_initializer": {"class_name": "Ones", "config": {"dtype": "float32"}}, "moving_mean_initializer": {"class_name": "Zeros", "config": {"dtype": "float32"}}, "moving_variance_initializer": {"class_name": "Ones", "config": {"dtype": "float32"}}, "beta_regularizer": null, "gamma_regularizer": null, "beta_constraint": null, "gamma_constraint": null}, "name": "expanded_conv_8/depthwise/BatchNorm", "inbound_nodes": [[["expanded_conv_8/depthwise", 0, 0, {}]]]}, {"class_name": "TensorFlowOpLayer", "config": {"name": "add_9", "trainable": true, "dtype": null, "node_def": {"name": "add_9", "op": "AddV2", "input": ["expanded_conv_8/depthwise/BatchNorm/cond/Merge", "add_9/y"], "attr": {"T": {"type": "DT_FLOAT"}}}, "constants": {"1": 3.0}}, "name": "tf_op_layer_add_9", "inbound_nodes": [[["expanded_conv_8/depthwise/BatchNorm", 0, 0, {}]]]}, {"class_name": "ReLU", "config": {"name": "re_lu_20", "trainable": true, "dtype": "float32", "max_value": 6.0, "negative_slope": 0.0, "threshold": 0.0}, "name": "re_lu_20", "inbound_nodes": [[["tf_op_layer_add_9", 0, 0, {}]]]}, {"class_name": "TensorFlowOpLayer", "config": {"name": "mul_9", "trainable": true, "dtype": null, "node_def": {"name": "mul_9", "op": "Mul", "input": ["re_lu_20/Relu6", "mul_9/y"], "attr": {"T": {"type": "DT_FLOAT"}}}, "constants": {"1": 0.1666666716337204}}, "name": "tf_op_layer_mul_9", "inbound_nodes": [[["re_lu_20", 0, 0, {}]]]}, {"class_name": "Multiply", "config": {"name": "multiply_6", "trainable": true, "dtype": "float32"}, "name": "multiply_6", "inbound_nodes": [[["tf_op_layer_mul_9", 0, 0, {}], ["expanded_conv_8/depthwise/BatchNorm", 0, 0, {}]]]}, {"class_name": "Conv2D", "config": {"name": "expanded_conv_8/project", "trainable": true, "dtype": "float32", "filters": 80, "kernel_size": [1, 1], "strides": [1, 1], "padding": "same", "data_format": "channels_last", "dilation_rate": [1, 1], "groups": 1, "activation": "linear", "use_bias": false, "kernel_initializer": {"class_name": "GlorotUniform", "config": {"seed": null, "dtype": "float32"}}, "bias_initializer": {"class_name": "Zeros", "config": {"dtype": "float32"}}, "kernel_regularizer": null, "bias_regularizer": null, "activity_regularizer": null, "kernel_constraint": null, "bias_constraint": null}, "name": "expanded_conv_8/project", "inbound_nodes": [[["multiply_6", 0, 0, {}]]]}, {"class_name": "BatchNormalization", "config": {"name": "expanded_conv_8/project/BatchNorm", "trainable": true, "dtype": "float32", "axis": [3], "momentum": 0.999, "epsilon": 0.001, "center": true, "scale": true, "beta_initializer": {"class_name": "Zeros", "config": {"dtype": "float32"}}, "gamma_initializer": {"class_name": "Ones", "config": {"dtype": "float32"}}, "moving_mean_initializer": {"class_name": "Zeros", "config": {"dtype": "float32"}}, "moving_variance_initializer": {"class_name": "Ones", "config": {"dtype": "float32"}}, "beta_regularizer": null, "gamma_regularizer": null, "beta_constraint": null, "gamma_constraint": null}, "name": "expanded_conv_8/project/BatchNorm", "inbound_nodes": [[["expanded_conv_8/project", 0, 0, {}]]]}, {"class_name": "Add", "config": {"name": "expanded_conv_8/Add", "trainable": true, "dtype": "float32"}, "name": "expanded_conv_8/Add", "inbound_nodes": [[["expanded_conv_7/Add", 0, 0, {}], ["expanded_conv_8/project/BatchNorm", 0, 0, {}]]]}, {"class_name": "Conv2D", "config": {"name": "expanded_conv_9/expand", "trainable": true, "dtype": "float32", "filters": 184, "kernel_size": [1, 1], "strides": [1, 1], "padding": "same", "data_format": "channels_last", "dilation_rate": [1, 1], "groups": 1, "activation": "linear", "use_bias": false, "kernel_initializer": {"class_name": "GlorotUniform", "config": {"seed": null, "dtype": "float32"}}, "bias_initializer": {"class_name": "Zeros", "config": {"dtype": "float32"}}, "kernel_regularizer": null, "bias_regularizer": null, "activity_regularizer": null, "kernel_constraint": null, "bias_constraint": null}, "name": "expanded_conv_9/expand", "inbound_nodes": [[["expanded_conv_8/Add", 0, 0, {}]]]}, {"class_name": "BatchNormalization", "config": {"name": "expanded_conv_9/expand/BatchNorm", "trainable": true, "dtype": "float32", "axis": [3], "momentum": 0.999, "epsilon": 0.001, "center": true, "scale": true, "beta_initializer": {"class_name": "Zeros", "config": {"dtype": "float32"}}, "gamma_initializer": {"class_name": "Ones", "config": {"dtype": "float32"}}, "moving_mean_initializer": {"class_name": "Zeros", "config": {"dtype": "float32"}}, "moving_variance_initializer": {"class_name": "Ones", "config": {"dtype": "float32"}}, "beta_regularizer": null, "gamma_regularizer": null, "beta_constraint": null, "gamma_constraint": null}, "name": "expanded_conv_9/expand/BatchNorm", "inbound_nodes": [[["expanded_conv_9/expand", 0, 0, {}]]]}, {"class_name": "TensorFlowOpLayer", "config": {"name": "add_10", "trainable": true, "dtype": null, "node_def": {"name": "add_10", "op": "AddV2", "input": ["expanded_conv_9/expand/BatchNorm/cond/Merge", "add_10/y"], "attr": {"T": {"type": "DT_FLOAT"}}}, "constants": {"1": 3.0}}, "name": "tf_op_layer_add_10", "inbound_nodes": [[["expanded_conv_9/expand/BatchNorm", 0, 0, {}]]]}, {"class_name": "ReLU", "config": {"name": "re_lu_21", "trainable": true, "dtype": "float32", "max_value": 6.0, "negative_slope": 0.0, "threshold": 0.0}, "name": "re_lu_21", "inbound_nodes": [[["tf_op_layer_add_10", 0, 0, {}]]]}, {"class_name": "TensorFlowOpLayer", "config": {"name": "mul_10", "trainable": true, "dtype": null, "node_def": {"name": "mul_10", "op": "Mul", "input": ["re_lu_21/Relu6", "mul_10/y"], "attr": {"T": {"type": "DT_FLOAT"}}}, "constants": {"1": 0.1666666716337204}}, "name": "tf_op_layer_mul_10", "inbound_nodes": [[["re_lu_21", 0, 0, {}]]]}, {"class_name": "Multiply", "config": {"name": "multiply_7", "trainable": true, "dtype": "float32"}, "name": "multiply_7", "inbound_nodes": [[["tf_op_layer_mul_10", 0, 0, {}], ["expanded_conv_9/expand/BatchNorm", 0, 0, {}]]]}, {"class_name": "DepthwiseConv2D", "config": {"name": "expanded_conv_9/depthwise", "trainable": true, "dtype": "float32", "kernel_size": [3, 3], "strides": [1, 1], "padding": "same", "data_format": "channels_last", "dilation_rate": [1, 1], "groups": 1, "activation": "linear", "use_bias": false, "bias_initializer": {"class_name": "Zeros", "config": {"dtype": "float32"}}, "bias_regularizer": null, "activity_regularizer": null, "bias_constraint": null, "depth_multiplier": 1, "depthwise_initializer": {"class_name": "GlorotUniform", "config": {"seed": null, "dtype": "float32"}}, "depthwise_regularizer": null, "depthwise_constraint": null}, "name": "expanded_conv_9/depthwise", "inbound_nodes": [[["multiply_7", 0, 0, {}]]]}, {"class_name": "BatchNormalization", "config": {"name": "expanded_conv_9/depthwise/BatchNorm", "trainable": true, "dtype": "float32", "axis": [3], "momentum": 0.999, "epsilon": 0.001, "center": true, "scale": true, "beta_initializer": {"class_name": "Zeros", "config": {"dtype": "float32"}}, "gamma_initializer": {"class_name": "Ones", "config": {"dtype": "float32"}}, "moving_mean_initializer": {"class_name": "Zeros", "config": {"dtype": "float32"}}, "moving_variance_initializer": {"class_name": "Ones", "config": {"dtype": "float32"}}, "beta_regularizer": null, "gamma_regularizer": null, "beta_constraint": null, "gamma_constraint": null}, "name": "expanded_conv_9/depthwise/BatchNorm", "inbound_nodes": [[["expanded_conv_9/depthwise", 0, 0, {}]]]}, {"class_name": "TensorFlowOpLayer", "config": {"name": "add_11", "trainable": true, "dtype": null, "node_def": {"name": "add_11", "op": "AddV2", "input": ["expanded_conv_9/depthwise/BatchNorm/cond/Merge", "add_11/y"], "attr": {"T": {"type": "DT_FLOAT"}}}, "constants": {"1": 3.0}}, "name": "tf_op_layer_add_11", "inbound_nodes": [[["expanded_conv_9/depthwise/BatchNorm", 0, 0, {}]]]}, {"class_name": "ReLU", "config": {"name": "re_lu_22", "trainable": true, "dtype": "float32", "max_value": 6.0, "negative_slope": 0.0, "threshold": 0.0}, "name": "re_lu_22", "inbound_nodes": [[["tf_op_layer_add_11", 0, 0, {}]]]}, {"class_name": "TensorFlowOpLayer", "config": {"name": "mul_11", "trainable": true, "dtype": null, "node_def": {"name": "mul_11", "op": "Mul", "input": ["re_lu_22/Relu6", "mul_11/y"], "attr": {"T": {"type": "DT_FLOAT"}}}, "constants": {"1": 0.1666666716337204}}, "name": "tf_op_layer_mul_11", "inbound_nodes": [[["re_lu_22", 0, 0, {}]]]}, {"class_name": "Multiply", "config": {"name": "multiply_8", "trainable": true, "dtype": "float32"}, "name": "multiply_8", "inbound_nodes": [[["tf_op_layer_mul_11", 0, 0, {}], ["expanded_conv_9/depthwise/BatchNorm", 0, 0, {}]]]}, {"class_name": "Conv2D", "config": {"name": "expanded_conv_9/project", "trainable": true, "dtype": "float32", "filters": 80, "kernel_size": [1, 1], "strides": [1, 1], "padding": "same", "data_format": "channels_last", "dilation_rate": [1, 1], "groups": 1, "activation": "linear", "use_bias": false, "kernel_initializer": {"class_name": "GlorotUniform", "config": {"seed": null, "dtype": "float32"}}, "bias_initializer": {"class_name": "Zeros", "config": {"dtype": "float32"}}, "kernel_regularizer": null, "bias_regularizer": null, "activity_regularizer": null, "kernel_constraint": null, "bias_constraint": null}, "name": "expanded_conv_9/project", "inbound_nodes": [[["multiply_8", 0, 0, {}]]]}, {"class_name": "BatchNormalization", "config": {"name": "expanded_conv_9/project/BatchNorm", "trainable": true, "dtype": "float32", "axis": [3], "momentum": 0.999, "epsilon": 0.001, "center": true, "scale": true, "beta_initializer": {"class_name": "Zeros", "config": {"dtype": "float32"}}, "gamma_initializer": {"class_name": "Ones", "config": {"dtype": "float32"}}, "moving_mean_initializer": {"class_name": "Zeros", "config": {"dtype": "float32"}}, "moving_variance_initializer": {"class_name": "Ones", "config": {"dtype": "float32"}}, "beta_regularizer": null, "gamma_regularizer": null, "beta_constraint": null, "gamma_constraint": null}, "name": "expanded_conv_9/project/BatchNorm", "inbound_nodes": [[["expanded_conv_9/project", 0, 0, {}]]]}, {"class_name": "Add", "config": {"name": "expanded_conv_9/Add", "trainable": true, "dtype": "float32"}, "name": "expanded_conv_9/Add", "inbound_nodes": [[["expanded_conv_8/Add", 0, 0, {}], ["expanded_conv_9/project/BatchNorm", 0, 0, {}]]]}, {"class_name": "Conv2D", "config": {"name": "expanded_conv_10/expand", "trainable": true, "dtype": "float32", "filters": 480, "kernel_size": [1, 1], "strides": [1, 1], "padding": "same", "data_format": "channels_last", "dilation_rate": [1, 1], "groups": 1, "activation": "linear", "use_bias": false, "kernel_initializer": {"class_name": "GlorotUniform", "config": {"seed": null, "dtype": "float32"}}, "bias_initializer": {"class_name": "Zeros", "config": {"dtype": "float32"}}, "kernel_regularizer": null, "bias_regularizer": null, "activity_regularizer": null, "kernel_constraint": null, "bias_constraint": null}, "name": "expanded_conv_10/expand", "inbound_nodes": [[["expanded_conv_9/Add", 0, 0, {}]]]}, {"class_name": "BatchNormalization", "config": {"name": "expanded_conv_10/expand/BatchNorm", "trainable": true, "dtype": "float32", "axis": [3], "momentum": 0.999, "epsilon": 0.001, "center": true, "scale": true, "beta_initializer": {"class_name": "Zeros", "config": {"dtype": "float32"}}, "gamma_initializer": {"class_name": "Ones", "config": {"dtype": "float32"}}, "moving_mean_initializer": {"class_name": "Zeros", "config": {"dtype": "float32"}}, "moving_variance_initializer": {"class_name": "Ones", "config": {"dtype": "float32"}}, "beta_regularizer": null, "gamma_regularizer": null, "beta_constraint": null, "gamma_constraint": null}, "name": "expanded_conv_10/expand/BatchNorm", "inbound_nodes": [[["expanded_conv_10/expand", 0, 0, {}]]]}, {"class_name": "TensorFlowOpLayer", "config": {"name": "add_12", "trainable": true, "dtype": null, "node_def": {"name": "add_12", "op": "AddV2", "input": ["expanded_conv_10/expand/BatchNorm/cond/Merge", "add_12/y"], "attr": {"T": {"type": "DT_FLOAT"}}}, "constants": {"1": 3.0}}, "name": "tf_op_layer_add_12", "inbound_nodes": [[["expanded_conv_10/expand/BatchNorm", 0, 0, {}]]]}, {"class_name": "ReLU", "config": {"name": "re_lu_23", "trainable": true, "dtype": "float32", "max_value": 6.0, "negative_slope": 0.0, "threshold": 0.0}, "name": "re_lu_23", "inbound_nodes": [[["tf_op_layer_add_12", 0, 0, {}]]]}, {"class_name": "TensorFlowOpLayer", "config": {"name": "mul_12", "trainable": true, "dtype": null, "node_def": {"name": "mul_12", "op": "Mul", "input": ["re_lu_23/Relu6", "mul_12/y"], "attr": {"T": {"type": "DT_FLOAT"}}}, "constants": {"1": 0.1666666716337204}}, "name": "tf_op_layer_mul_12", "inbound_nodes": [[["re_lu_23", 0, 0, {}]]]}, {"class_name": "Multiply", "config": {"name": "multiply_9", "trainable": true, "dtype": "float32"}, "name": "multiply_9", "inbound_nodes": [[["tf_op_layer_mul_12", 0, 0, {}], ["expanded_conv_10/expand/BatchNorm", 0, 0, {}]]]}, {"class_name": "DepthwiseConv2D", "config": {"name": "expanded_conv_10/depthwise", "trainable": true, "dtype": "float32", "kernel_size": [3, 3], "strides": [1, 1], "padding": "same", "data_format": "channels_last", "dilation_rate": [1, 1], "groups": 1, "activation": "linear", "use_bias": false, "bias_initializer": {"class_name": "Zeros", "config": {"dtype": "float32"}}, "bias_regularizer": null, "activity_regularizer": null, "bias_constraint": null, "depth_multiplier": 1, "depthwise_initializer": {"class_name": "GlorotUniform", "config": {"seed": null, "dtype": "float32"}}, "depthwise_regularizer": null, "depthwise_constraint": null}, "name": "expanded_conv_10/depthwise", "inbound_nodes": [[["multiply_9", 0, 0, {}]]]}, {"class_name": "BatchNormalization", "config": {"name": "expanded_conv_10/depthwise/BatchNorm", "trainable": true, "dtype": "float32", "axis": [3], "momentum": 0.999, "epsilon": 0.001, "center": true, "scale": true, "beta_initializer": {"class_name": "Zeros", "config": {"dtype": "float32"}}, "gamma_initializer": {"class_name": "Ones", "config": {"dtype": "float32"}}, "moving_mean_initializer": {"class_name": "Zeros", "config": {"dtype": "float32"}}, "moving_variance_initializer": {"class_name": "Ones", "config": {"dtype": "float32"}}, "beta_regularizer": null, "gamma_regularizer": null, "beta_constraint": null, "gamma_constraint": null}, "name": "expanded_conv_10/depthwise/BatchNorm", "inbound_nodes": [[["expanded_conv_10/depthwise", 0, 0, {}]]]}, {"class_name": "TensorFlowOpLayer", "config": {"name": "add_13", "trainable": true, "dtype": null, "node_def": {"name": "add_13", "op": "AddV2", "input": ["expanded_conv_10/depthwise/BatchNorm/cond/Merge", "add_13/y"], "attr": {"T": {"type": "DT_FLOAT"}}}, "constants": {"1": 3.0}}, "name": "tf_op_layer_add_13", "inbound_nodes": [[["expanded_conv_10/depthwise/BatchNorm", 0, 0, {}]]]}, {"class_name": "ReLU", "config": {"name": "re_lu_24", "trainable": true, "dtype": "float32", "max_value": 6.0, "negative_slope": 0.0, "threshold": 0.0}, "name": "re_lu_24", "inbound_nodes": [[["tf_op_layer_add_13", 0, 0, {}]]]}, {"class_name": "TensorFlowOpLayer", "config": {"name": "mul_13", "trainable": true, "dtype": null, "node_def": {"name": "mul_13", "op": "Mul", "input": ["re_lu_24/Relu6", "mul_13/y"], "attr": {"T": {"type": "DT_FLOAT"}}}, "constants": {"1": 0.1666666716337204}}, "name": "tf_op_layer_mul_13", "inbound_nodes": [[["re_lu_24", 0, 0, {}]]]}, {"class_name": "Multiply", "config": {"name": "multiply_10", "trainable": true, "dtype": "float32"}, "name": "multiply_10", "inbound_nodes": [[["tf_op_layer_mul_13", 0, 0, {}], ["expanded_conv_10/depthwise/BatchNorm", 0, 0, {}]]]}, {"class_name": "GlobalAveragePooling2D", "config": {"name": "expanded_conv_10/squeeze_excite/AvgPool", "trainable": true, "dtype": "float32", "data_format": "channels_last"}, "name": "expanded_conv_10/squeeze_excite/AvgPool", "inbound_nodes": [[["multiply_10", 0, 0, {}]]]}, {"class_name": "Reshape", "config": {"name": "reshape_3", "trainable": true, "dtype": "float32", "target_shape": [1, 1, 480]}, "name": "reshape_3", "inbound_nodes": [[["expanded_conv_10/squeeze_excite/AvgPool", 0, 0, {}]]]}, {"class_name": "Conv2D", "config": {"name": "expanded_conv_10/squeeze_excite/Conv", "trainable": true, "dtype": "float32", "filters": 120, "kernel_size": [1, 1], "strides": [1, 1], "padding": "same", "data_format": "channels_last", "dilation_rate": [1, 1], "groups": 1, "activation": "linear", "use_bias": true, "kernel_initializer": {"class_name": "GlorotUniform", "config": {"seed": null, "dtype": "float32"}}, "bias_initializer": {"class_name": "Zeros", "config": {"dtype": "float32"}}, "kernel_regularizer": null, "bias_regularizer": null, "activity_regularizer": null, "kernel_constraint": null, "bias_constraint": null}, "name": "expanded_conv_10/squeeze_excite/Conv", "inbound_nodes": [[["reshape_3", 0, 0, {}]]]}, {"class_name": "ReLU", "config": {"name": "expanded_conv_10/squeeze_excite/Relu", "trainable": true, "dtype": "float32", "max_value": null, "negative_slope": 0.0, "threshold": 0.0}, "name": "expanded_conv_10/squeeze_excite/Relu", "inbound_nodes": [[["expanded_conv_10/squeeze_excite/Conv", 0, 0, {}]]]}, {"class_name": "Conv2D", "config": {"name": "expanded_conv_10/squeeze_excite/Conv_1", "trainable": true, "dtype": "float32", "filters": 480, "kernel_size": [1, 1], "strides": [1, 1], "padding": "same", "data_format": "channels_last", "dilation_rate": [1, 1], "groups": 1, "activation": "linear", "use_bias": true, "kernel_initializer": {"class_name": "GlorotUniform", "config": {"seed": null, "dtype": "float32"}}, "bias_initializer": {"class_name": "Zeros", "config": {"dtype": "float32"}}, "kernel_regularizer": null, "bias_regularizer": null, "activity_regularizer": null, "kernel_constraint": null, "bias_constraint": null}, "name": "expanded_conv_10/squeeze_excite/Conv_1", "inbound_nodes": [[["expanded_conv_10/squeeze_excite/Relu", 0, 0, {}]]]}, {"class_name": "TensorFlowOpLayer", "config": {"name": "add_14", "trainable": true, "dtype": null, "node_def": {"name": "add_14", "op": "AddV2", "input": ["expanded_conv_10/squeeze_excite/Conv_1/BiasAdd", "add_14/y"], "attr": {"T": {"type": "DT_FLOAT"}}}, "constants": {"1": 3.0}}, "name": "tf_op_layer_add_14", "inbound_nodes": [[["expanded_conv_10/squeeze_excite/Conv_1", 0, 0, {}]]]}, {"class_name": "ReLU", "config": {"name": "re_lu_25", "trainable": true, "dtype": "float32", "max_value": 6.0, "negative_slope": 0.0, "threshold": 0.0}, "name": "re_lu_25", "inbound_nodes": [[["tf_op_layer_add_14", 0, 0, {}]]]}, {"class_name": "TensorFlowOpLayer", "config": {"name": "mul_14", "trainable": true, "dtype": null, "node_def": {"name": "mul_14", "op": "Mul", "input": ["re_lu_25/Relu6", "mul_14/y"], "attr": {"T": {"type": "DT_FLOAT"}}}, "constants": {"1": 0.1666666716337204}}, "name": "tf_op_layer_mul_14", "inbound_nodes": [[["re_lu_25", 0, 0, {}]]]}, {"class_name": "Multiply", "config": {"name": "expanded_conv_10/squeeze_excite/Mul", "trainable": true, "dtype": "float32"}, "name": "expanded_conv_10/squeeze_excite/Mul", "inbound_nodes": [[["multiply_10", 0, 0, {}], ["tf_op_layer_mul_14", 0, 0, {}]]]}, {"class_name": "Conv2D", "config": {"name": "expanded_conv_10/project", "trainable": true, "dtype": "float32", "filters": 112, "kernel_size": [1, 1], "strides": [1, 1], "padding": "same", "data_format": "channels_last", "dilation_rate": [1, 1], "groups": 1, "activation": "linear", "use_bias": false, "kernel_initializer": {"class_name": "GlorotUniform", "config": {"seed": null, "dtype": "float32"}}, "bias_initializer": {"class_name": "Zeros", "config": {"dtype": "float32"}}, "kernel_regularizer": null, "bias_regularizer": null, "activity_regularizer": null, "kernel_constraint": null, "bias_constraint": null}, "name": "expanded_conv_10/project", "inbound_nodes": [[["expanded_conv_10/squeeze_excite/Mul", 0, 0, {}]]]}, {"class_name": "BatchNormalization", "config": {"name": "expanded_conv_10/project/BatchNorm", "trainable": true, "dtype": "float32", "axis": [3], "momentum": 0.999, "epsilon": 0.001, "center": true, "scale": true, "beta_initializer": {"class_name": "Zeros", "config": {"dtype": "float32"}}, "gamma_initializer": {"class_name": "Ones", "config": {"dtype": "float32"}}, "moving_mean_initializer": {"class_name": "Zeros", "config": {"dtype": "float32"}}, "moving_variance_initializer": {"class_name": "Ones", "config": {"dtype": "float32"}}, "beta_regularizer": null, "gamma_regularizer": null, "beta_constraint": null, "gamma_constraint": null}, "name": "expanded_conv_10/project/BatchNorm", "inbound_nodes": [[["expanded_conv_10/project", 0, 0, {}]]]}, {"class_name": "Conv2D", "config": {"name": "expanded_conv_11/expand", "trainable": true, "dtype": "float32", "filters": 672, "kernel_size": [1, 1], "strides": [1, 1], "padding": "same", "data_format": "channels_last", "dilation_rate": [1, 1], "groups": 1, "activation": "linear", "use_bias": false, "kernel_initializer": {"class_name": "GlorotUniform", "config": {"seed": null, "dtype": "float32"}}, "bias_initializer": {"class_name": "Zeros", "config": {"dtype": "float32"}}, "kernel_regularizer": null, "bias_regularizer": null, "activity_regularizer": null, "kernel_constraint": null, "bias_constraint": null}, "name": "expanded_conv_11/expand", "inbound_nodes": [[["expanded_conv_10/project/BatchNorm", 0, 0, {}]]]}, {"class_name": "BatchNormalization", "config": {"name": "expanded_conv_11/expand/BatchNorm", "trainable": true, "dtype": "float32", "axis": [3], "momentum": 0.999, "epsilon": 0.001, "center": true, "scale": true, "beta_initializer": {"class_name": "Zeros", "config": {"dtype": "float32"}}, "gamma_initializer": {"class_name": "Ones", "config": {"dtype": "float32"}}, "moving_mean_initializer": {"class_name": "Zeros", "config": {"dtype": "float32"}}, "moving_variance_initializer": {"class_name": "Ones", "config": {"dtype": "float32"}}, "beta_regularizer": null, "gamma_regularizer": null, "beta_constraint": null, "gamma_constraint": null}, "name": "expanded_conv_11/expand/BatchNorm", "inbound_nodes": [[["expanded_conv_11/expand", 0, 0, {}]]]}, {"class_name": "TensorFlowOpLayer", "config": {"name": "add_15", "trainable": true, "dtype": null, "node_def": {"name": "add_15", "op": "AddV2", "input": ["expanded_conv_11/expand/BatchNorm/cond/Merge", "add_15/y"], "attr": {"T": {"type": "DT_FLOAT"}}}, "constants": {"1": 3.0}}, "name": "tf_op_layer_add_15", "inbound_nodes": [[["expanded_conv_11/expand/BatchNorm", 0, 0, {}]]]}, {"class_name": "ReLU", "config": {"name": "re_lu_26", "trainable": true, "dtype": "float32", "max_value": 6.0, "negative_slope": 0.0, "threshold": 0.0}, "name": "re_lu_26", "inbound_nodes": [[["tf_op_layer_add_15", 0, 0, {}]]]}, {"class_name": "TensorFlowOpLayer", "config": {"name": "mul_15", "trainable": true, "dtype": null, "node_def": {"name": "mul_15", "op": "Mul", "input": ["re_lu_26/Relu6", "mul_15/y"], "attr": {"T": {"type": "DT_FLOAT"}}}, "constants": {"1": 0.1666666716337204}}, "name": "tf_op_layer_mul_15", "inbound_nodes": [[["re_lu_26", 0, 0, {}]]]}, {"class_name": "Multiply", "config": {"name": "multiply_11", "trainable": true, "dtype": "float32"}, "name": "multiply_11", "inbound_nodes": [[["tf_op_layer_mul_15", 0, 0, {}], ["expanded_conv_11/expand/BatchNorm", 0, 0, {}]]]}, {"class_name": "DepthwiseConv2D", "config": {"name": "expanded_conv_11/depthwise", "trainable": true, "dtype": "float32", "kernel_size": [3, 3], "strides": [1, 1], "padding": "same", "data_format": "channels_last", "dilation_rate": [1, 1], "groups": 1, "activation": "linear", "use_bias": false, "bias_initializer": {"class_name": "Zeros", "config": {"dtype": "float32"}}, "bias_regularizer": null, "activity_regularizer": null, "bias_constraint": null, "depth_multiplier": 1, "depthwise_initializer": {"class_name": "GlorotUniform", "config": {"seed": null, "dtype": "float32"}}, "depthwise_regularizer": null, "depthwise_constraint": null}, "name": "expanded_conv_11/depthwise", "inbound_nodes": [[["multiply_11", 0, 0, {}]]]}, {"class_name": "BatchNormalization", "config": {"name": "expanded_conv_11/depthwise/BatchNorm", "trainable": true, "dtype": "float32", "axis": [3], "momentum": 0.999, "epsilon": 0.001, "center": true, "scale": true, "beta_initializer": {"class_name": "Zeros", "config": {"dtype": "float32"}}, "gamma_initializer": {"class_name": "Ones", "config": {"dtype": "float32"}}, "moving_mean_initializer": {"class_name": "Zeros", "config": {"dtype": "float32"}}, "moving_variance_initializer": {"class_name": "Ones", "config": {"dtype": "float32"}}, "beta_regularizer": null, "gamma_regularizer": null, "beta_constraint": null, "gamma_constraint": null}, "name": "expanded_conv_11/depthwise/BatchNorm", "inbound_nodes": [[["expanded_conv_11/depthwise", 0, 0, {}]]]}, {"class_name": "TensorFlowOpLayer", "config": {"name": "add_16", "trainable": true, "dtype": null, "node_def": {"name": "add_16", "op": "AddV2", "input": ["expanded_conv_11/depthwise/BatchNorm/cond/Merge", "add_16/y"], "attr": {"T": {"type": "DT_FLOAT"}}}, "constants": {"1": 3.0}}, "name": "tf_op_layer_add_16", "inbound_nodes": [[["expanded_conv_11/depthwise/BatchNorm", 0, 0, {}]]]}, {"class_name": "ReLU", "config": {"name": "re_lu_27", "trainable": true, "dtype": "float32", "max_value": 6.0, "negative_slope": 0.0, "threshold": 0.0}, "name": "re_lu_27", "inbound_nodes": [[["tf_op_layer_add_16", 0, 0, {}]]]}, {"class_name": "TensorFlowOpLayer", "config": {"name": "mul_16", "trainable": true, "dtype": null, "node_def": {"name": "mul_16", "op": "Mul", "input": ["re_lu_27/Relu6", "mul_16/y"], "attr": {"T": {"type": "DT_FLOAT"}}}, "constants": {"1": 0.1666666716337204}}, "name": "tf_op_layer_mul_16", "inbound_nodes": [[["re_lu_27", 0, 0, {}]]]}, {"class_name": "Multiply", "config": {"name": "multiply_12", "trainable": true, "dtype": "float32"}, "name": "multiply_12", "inbound_nodes": [[["tf_op_layer_mul_16", 0, 0, {}], ["expanded_conv_11/depthwise/BatchNorm", 0, 0, {}]]]}, {"class_name": "GlobalAveragePooling2D", "config": {"name": "expanded_conv_11/squeeze_excite/AvgPool", "trainable": true, "dtype": "float32", "data_format": "channels_last"}, "name": "expanded_conv_11/squeeze_excite/AvgPool", "inbound_nodes": [[["multiply_12", 0, 0, {}]]]}, {"class_name": "Reshape", "config": {"name": "reshape_4", "trainable": true, "dtype": "float32", "target_shape": [1, 1, 672]}, "name": "reshape_4", "inbound_nodes": [[["expanded_conv_11/squeeze_excite/AvgPool", 0, 0, {}]]]}, {"class_name": "Conv2D", "config": {"name": "expanded_conv_11/squeeze_excite/Conv", "trainable": true, "dtype": "float32", "filters": 168, "kernel_size": [1, 1], "strides": [1, 1], "padding": "same", "data_format": "channels_last", "dilation_rate": [1, 1], "groups": 1, "activation": "linear", "use_bias": true, "kernel_initializer": {"class_name": "GlorotUniform", "config": {"seed": null, "dtype": "float32"}}, "bias_initializer": {"class_name": "Zeros", "config": {"dtype": "float32"}}, "kernel_regularizer": null, "bias_regularizer": null, "activity_regularizer": null, "kernel_constraint": null, "bias_constraint": null}, "name": "expanded_conv_11/squeeze_excite/Conv", "inbound_nodes": [[["reshape_4", 0, 0, {}]]]}, {"class_name": "ReLU", "config": {"name": "expanded_conv_11/squeeze_excite/Relu", "trainable": true, "dtype": "float32", "max_value": null, "negative_slope": 0.0, "threshold": 0.0}, "name": "expanded_conv_11/squeeze_excite/Relu", "inbound_nodes": [[["expanded_conv_11/squeeze_excite/Conv", 0, 0, {}]]]}, {"class_name": "Conv2D", "config": {"name": "expanded_conv_11/squeeze_excite/Conv_1", "trainable": true, "dtype": "float32", "filters": 672, "kernel_size": [1, 1], "strides": [1, 1], "padding": "same", "data_format": "channels_last", "dilation_rate": [1, 1], "groups": 1, "activation": "linear", "use_bias": true, "kernel_initializer": {"class_name": "GlorotUniform", "config": {"seed": null, "dtype": "float32"}}, "bias_initializer": {"class_name": "Zeros", "config": {"dtype": "float32"}}, "kernel_regularizer": null, "bias_regularizer": null, "activity_regularizer": null, "kernel_constraint": null, "bias_constraint": null}, "name": "expanded_conv_11/squeeze_excite/Conv_1", "inbound_nodes": [[["expanded_conv_11/squeeze_excite/Relu", 0, 0, {}]]]}, {"class_name": "TensorFlowOpLayer", "config": {"name": "add_17", "trainable": true, "dtype": null, "node_def": {"name": "add_17", "op": "AddV2", "input": ["expanded_conv_11/squeeze_excite/Conv_1/BiasAdd", "add_17/y"], "attr": {"T": {"type": "DT_FLOAT"}}}, "constants": {"1": 3.0}}, "name": "tf_op_layer_add_17", "inbound_nodes": [[["expanded_conv_11/squeeze_excite/Conv_1", 0, 0, {}]]]}, {"class_name": "ReLU", "config": {"name": "re_lu_28", "trainable": true, "dtype": "float32", "max_value": 6.0, "negative_slope": 0.0, "threshold": 0.0}, "name": "re_lu_28", "inbound_nodes": [[["tf_op_layer_add_17", 0, 0, {}]]]}, {"class_name": "TensorFlowOpLayer", "config": {"name": "mul_17", "trainable": true, "dtype": null, "node_def": {"name": "mul_17", "op": "Mul", "input": ["re_lu_28/Relu6", "mul_17/y"], "attr": {"T": {"type": "DT_FLOAT"}}}, "constants": {"1": 0.1666666716337204}}, "name": "tf_op_layer_mul_17", "inbound_nodes": [[["re_lu_28", 0, 0, {}]]]}, {"class_name": "Multiply", "config": {"name": "expanded_conv_11/squeeze_excite/Mul", "trainable": true, "dtype": "float32"}, "name": "expanded_conv_11/squeeze_excite/Mul", "inbound_nodes": [[["multiply_12", 0, 0, {}], ["tf_op_layer_mul_17", 0, 0, {}]]]}, {"class_name": "Conv2D", "config": {"name": "expanded_conv_11/project", "trainable": true, "dtype": "float32", "filters": 112, "kernel_size": [1, 1], "strides": [1, 1], "padding": "same", "data_format": "channels_last", "dilation_rate": [1, 1], "groups": 1, "activation": "linear", "use_bias": false, "kernel_initializer": {"class_name": "GlorotUniform", "config": {"seed": null, "dtype": "float32"}}, "bias_initializer": {"class_name": "Zeros", "config": {"dtype": "float32"}}, "kernel_regularizer": null, "bias_regularizer": null, "activity_regularizer": null, "kernel_constraint": null, "bias_constraint": null}, "name": "expanded_conv_11/project", "inbound_nodes": [[["expanded_conv_11/squeeze_excite/Mul", 0, 0, {}]]]}, {"class_name": "BatchNormalization", "config": {"name": "expanded_conv_11/project/BatchNorm", "trainable": true, "dtype": "float32", "axis": [3], "momentum": 0.999, "epsilon": 0.001, "center": true, "scale": true, "beta_initializer": {"class_name": "Zeros", "config": {"dtype": "float32"}}, "gamma_initializer": {"class_name": "Ones", "config": {"dtype": "float32"}}, "moving_mean_initializer": {"class_name": "Zeros", "config": {"dtype": "float32"}}, "moving_variance_initializer": {"class_name": "Ones", "config": {"dtype": "float32"}}, "beta_regularizer": null, "gamma_regularizer": null, "beta_constraint": null, "gamma_constraint": null}, "name": "expanded_conv_11/project/BatchNorm", "inbound_nodes": [[["expanded_conv_11/project", 0, 0, {}]]]}, {"class_name": "Add", "config": {"name": "expanded_conv_11/Add", "trainable": true, "dtype": "float32"}, "name": "expanded_conv_11/Add", "inbound_nodes": [[["expanded_conv_10/project/BatchNorm", 0, 0, {}], ["expanded_conv_11/project/BatchNorm", 0, 0, {}]]]}, {"class_name": "Conv2D", "config": {"name": "expanded_conv_12/expand", "trainable": true, "dtype": "float32", "filters": 672, "kernel_size": [1, 1], "strides": [1, 1], "padding": "same", "data_format": "channels_last", "dilation_rate": [1, 1], "groups": 1, "activation": "linear", "use_bias": false, "kernel_initializer": {"class_name": "GlorotUniform", "config": {"seed": null, "dtype": "float32"}}, "bias_initializer": {"class_name": "Zeros", "config": {"dtype": "float32"}}, "kernel_regularizer": null, "bias_regularizer": null, "activity_regularizer": null, "kernel_constraint": null, "bias_constraint": null}, "name": "expanded_conv_12/expand", "inbound_nodes": [[["expanded_conv_11/Add", 0, 0, {}]]]}, {"class_name": "BatchNormalization", "config": {"name": "expanded_conv_12/expand/BatchNorm", "trainable": true, "dtype": "float32", "axis": [3], "momentum": 0.999, "epsilon": 0.001, "center": true, "scale": true, "beta_initializer": {"class_name": "Zeros", "config": {"dtype": "float32"}}, "gamma_initializer": {"class_name": "Ones", "config": {"dtype": "float32"}}, "moving_mean_initializer": {"class_name": "Zeros", "config": {"dtype": "float32"}}, "moving_variance_initializer": {"class_name": "Ones", "config": {"dtype": "float32"}}, "beta_regularizer": null, "gamma_regularizer": null, "beta_constraint": null, "gamma_constraint": null}, "name": "expanded_conv_12/expand/BatchNorm", "inbound_nodes": [[["expanded_conv_12/expand", 0, 0, {}]]]}, {"class_name": "TensorFlowOpLayer", "config": {"name": "add_18", "trainable": true, "dtype": null, "node_def": {"name": "add_18", "op": "AddV2", "input": ["expanded_conv_12/expand/BatchNorm/cond/Merge", "add_18/y"], "attr": {"T": {"type": "DT_FLOAT"}}}, "constants": {"1": 3.0}}, "name": "tf_op_layer_add_18", "inbound_nodes": [[["expanded_conv_12/expand/BatchNorm", 0, 0, {}]]]}, {"class_name": "ReLU", "config": {"name": "re_lu_29", "trainable": true, "dtype": "float32", "max_value": 6.0, "negative_slope": 0.0, "threshold": 0.0}, "name": "re_lu_29", "inbound_nodes": [[["tf_op_layer_add_18", 0, 0, {}]]]}, {"class_name": "TensorFlowOpLayer", "config": {"name": "mul_18", "trainable": true, "dtype": null, "node_def": {"name": "mul_18", "op": "Mul", "input": ["re_lu_29/Relu6", "mul_18/y"], "attr": {"T": {"type": "DT_FLOAT"}}}, "constants": {"1": 0.1666666716337204}}, "name": "tf_op_layer_mul_18", "inbound_nodes": [[["re_lu_29", 0, 0, {}]]]}, {"class_name": "Multiply", "config": {"name": "multiply_13", "trainable": true, "dtype": "float32"}, "name": "multiply_13", "inbound_nodes": [[["tf_op_layer_mul_18", 0, 0, {}], ["expanded_conv_12/expand/BatchNorm", 0, 0, {}]]]}, {"class_name": "ZeroPadding2D", "config": {"name": "expanded_conv_12/depthwise/pad", "trainable": true, "dtype": "float32", "padding": [[1, 2], [1, 2]], "data_format": "channels_last"}, "name": "expanded_conv_12/depthwise/pad", "inbound_nodes": [[["multiply_13", 0, 0, {}]]]}, {"class_name": "DepthwiseConv2D", "config": {"name": "expanded_conv_12/depthwise", "trainable": true, "dtype": "float32", "kernel_size": [5, 5], "strides": [2, 2], "padding": "valid", "data_format": "channels_last", "dilation_rate": [1, 1], "groups": 1, "activation": "linear", "use_bias": false, "bias_initializer": {"class_name": "Zeros", "config": {"dtype": "float32"}}, "bias_regularizer": null, "activity_regularizer": null, "bias_constraint": null, "depth_multiplier": 1, "depthwise_initializer": {"class_name": "GlorotUniform", "config": {"seed": null, "dtype": "float32"}}, "depthwise_regularizer": null, "depthwise_constraint": null}, "name": "expanded_conv_12/depthwise", "inbound_nodes": [[["expanded_conv_12/depthwise/pad", 0, 0, {}]]]}, {"class_name": "BatchNormalization", "config": {"name": "expanded_conv_12/depthwise/BatchNorm", "trainable": true, "dtype": "float32", "axis": [3], "momentum": 0.999, "epsilon": 0.001, "center": true, "scale": true, "beta_initializer": {"class_name": "Zeros", "config": {"dtype": "float32"}}, "gamma_initializer": {"class_name": "Ones", "config": {"dtype": "float32"}}, "moving_mean_initializer": {"class_name": "Zeros", "config": {"dtype": "float32"}}, "moving_variance_initializer": {"class_name": "Ones", "config": {"dtype": "float32"}}, "beta_regularizer": null, "gamma_regularizer": null, "beta_constraint": null, "gamma_constraint": null}, "name": "expanded_conv_12/depthwise/BatchNorm", "inbound_nodes": [[["expanded_conv_12/depthwise", 0, 0, {}]]]}, {"class_name": "TensorFlowOpLayer", "config": {"name": "add_19", "trainable": true, "dtype": null, "node_def": {"name": "add_19", "op": "AddV2", "input": ["expanded_conv_12/depthwise/BatchNorm/cond/Merge", "add_19/y"], "attr": {"T": {"type": "DT_FLOAT"}}}, "constants": {"1": 3.0}}, "name": "tf_op_layer_add_19", "inbound_nodes": [[["expanded_conv_12/depthwise/BatchNorm", 0, 0, {}]]]}, {"class_name": "ReLU", "config": {"name": "re_lu_30", "trainable": true, "dtype": "float32", "max_value": 6.0, "negative_slope": 0.0, "threshold": 0.0}, "name": "re_lu_30", "inbound_nodes": [[["tf_op_layer_add_19", 0, 0, {}]]]}, {"class_name": "TensorFlowOpLayer", "config": {"name": "mul_19", "trainable": true, "dtype": null, "node_def": {"name": "mul_19", "op": "Mul", "input": ["re_lu_30/Relu6", "mul_19/y"], "attr": {"T": {"type": "DT_FLOAT"}}}, "constants": {"1": 0.1666666716337204}}, "name": "tf_op_layer_mul_19", "inbound_nodes": [[["re_lu_30", 0, 0, {}]]]}, {"class_name": "Multiply", "config": {"name": "multiply_14", "trainable": true, "dtype": "float32"}, "name": "multiply_14", "inbound_nodes": [[["tf_op_layer_mul_19", 0, 0, {}], ["expanded_conv_12/depthwise/BatchNorm", 0, 0, {}]]]}, {"class_name": "GlobalAveragePooling2D", "config": {"name": "expanded_conv_12/squeeze_excite/AvgPool", "trainable": true, "dtype": "float32", "data_format": "channels_last"}, "name": "expanded_conv_12/squeeze_excite/AvgPool", "inbound_nodes": [[["multiply_14", 0, 0, {}]]]}, {"class_name": "Reshape", "config": {"name": "reshape_5", "trainable": true, "dtype": "float32", "target_shape": [1, 1, 672]}, "name": "reshape_5", "inbound_nodes": [[["expanded_conv_12/squeeze_excite/AvgPool", 0, 0, {}]]]}, {"class_name": "Conv2D", "config": {"name": "expanded_conv_12/squeeze_excite/Conv", "trainable": true, "dtype": "float32", "filters": 168, "kernel_size": [1, 1], "strides": [1, 1], "padding": "same", "data_format": "channels_last", "dilation_rate": [1, 1], "groups": 1, "activation": "linear", "use_bias": true, "kernel_initializer": {"class_name": "GlorotUniform", "config": {"seed": null, "dtype": "float32"}}, "bias_initializer": {"class_name": "Zeros", "config": {"dtype": "float32"}}, "kernel_regularizer": null, "bias_regularizer": null, "activity_regularizer": null, "kernel_constraint": null, "bias_constraint": null}, "name": "expanded_conv_12/squeeze_excite/Conv", "inbound_nodes": [[["reshape_5", 0, 0, {}]]]}, {"class_name": "ReLU", "config": {"name": "expanded_conv_12/squeeze_excite/Relu", "trainable": true, "dtype": "float32", "max_value": null, "negative_slope": 0.0, "threshold": 0.0}, "name": "expanded_conv_12/squeeze_excite/Relu", "inbound_nodes": [[["expanded_conv_12/squeeze_excite/Conv", 0, 0, {}]]]}, {"class_name": "Conv2D", "config": {"name": "expanded_conv_12/squeeze_excite/Conv_1", "trainable": true, "dtype": "float32", "filters": 672, "kernel_size": [1, 1], "strides": [1, 1], "padding": "same", "data_format": "channels_last", "dilation_rate": [1, 1], "groups": 1, "activation": "linear", "use_bias": true, "kernel_initializer": {"class_name": "GlorotUniform", "config": {"seed": null, "dtype": "float32"}}, "bias_initializer": {"class_name": "Zeros", "config": {"dtype": "float32"}}, "kernel_regularizer": null, "bias_regularizer": null, "activity_regularizer": null, "kernel_constraint": null, "bias_constraint": null}, "name": "expanded_conv_12/squeeze_excite/Conv_1", "inbound_nodes": [[["expanded_conv_12/squeeze_excite/Relu", 0, 0, {}]]]}, {"class_name": "TensorFlowOpLayer", "config": {"name": "add_20", "trainable": true, "dtype": null, "node_def": {"name": "add_20", "op": "AddV2", "input": ["expanded_conv_12/squeeze_excite/Conv_1/BiasAdd", "add_20/y"], "attr": {"T": {"type": "DT_FLOAT"}}}, "constants": {"1": 3.0}}, "name": "tf_op_layer_add_20", "inbound_nodes": [[["expanded_conv_12/squeeze_excite/Conv_1", 0, 0, {}]]]}, {"class_name": "ReLU", "config": {"name": "re_lu_31", "trainable": true, "dtype": "float32", "max_value": 6.0, "negative_slope": 0.0, "threshold": 0.0}, "name": "re_lu_31", "inbound_nodes": [[["tf_op_layer_add_20", 0, 0, {}]]]}, {"class_name": "TensorFlowOpLayer", "config": {"name": "mul_20", "trainable": true, "dtype": null, "node_def": {"name": "mul_20", "op": "Mul", "input": ["re_lu_31/Relu6", "mul_20/y"], "attr": {"T": {"type": "DT_FLOAT"}}}, "constants": {"1": 0.1666666716337204}}, "name": "tf_op_layer_mul_20", "inbound_nodes": [[["re_lu_31", 0, 0, {}]]]}, {"class_name": "Multiply", "config": {"name": "expanded_conv_12/squeeze_excite/Mul", "trainable": true, "dtype": "float32"}, "name": "expanded_conv_12/squeeze_excite/Mul", "inbound_nodes": [[["multiply_14", 0, 0, {}], ["tf_op_layer_mul_20", 0, 0, {}]]]}, {"class_name": "Conv2D", "config": {"name": "expanded_conv_12/project", "trainable": true, "dtype": "float32", "filters": 160, "kernel_size": [1, 1], "strides": [1, 1], "padding": "same", "data_format": "channels_last", "dilation_rate": [1, 1], "groups": 1, "activation": "linear", "use_bias": false, "kernel_initializer": {"class_name": "GlorotUniform", "config": {"seed": null, "dtype": "float32"}}, "bias_initializer": {"class_name": "Zeros", "config": {"dtype": "float32"}}, "kernel_regularizer": null, "bias_regularizer": null, "activity_regularizer": null, "kernel_constraint": null, "bias_constraint": null}, "name": "expanded_conv_12/project", "inbound_nodes": [[["expanded_conv_12/squeeze_excite/Mul", 0, 0, {}]]]}, {"class_name": "BatchNormalization", "config": {"name": "expanded_conv_12/project/BatchNorm", "trainable": true, "dtype": "float32", "axis": [3], "momentum": 0.999, "epsilon": 0.001, "center": true, "scale": true, "beta_initializer": {"class_name": "Zeros", "config": {"dtype": "float32"}}, "gamma_initializer": {"class_name": "Ones", "config": {"dtype": "float32"}}, "moving_mean_initializer": {"class_name": "Zeros", "config": {"dtype": "float32"}}, "moving_variance_initializer": {"class_name": "Ones", "config": {"dtype": "float32"}}, "beta_regularizer": null, "gamma_regularizer": null, "beta_constraint": null, "gamma_constraint": null}, "name": "expanded_conv_12/project/BatchNorm", "inbound_nodes": [[["expanded_conv_12/project", 0, 0, {}]]]}, {"class_name": "Conv2D", "config": {"name": "expanded_conv_13/expand", "trainable": true, "dtype": "float32", "filters": 960, "kernel_size": [1, 1], "strides": [1, 1], "padding": "same", "data_format": "channels_last", "dilation_rate": [1, 1], "groups": 1, "activation": "linear", "use_bias": false, "kernel_initializer": {"class_name": "GlorotUniform", "config": {"seed": null, "dtype": "float32"}}, "bias_initializer": {"class_name": "Zeros", "config": {"dtype": "float32"}}, "kernel_regularizer": null, "bias_regularizer": null, "activity_regularizer": null, "kernel_constraint": null, "bias_constraint": null}, "name": "expanded_conv_13/expand", "inbound_nodes": [[["expanded_conv_12/project/BatchNorm", 0, 0, {}]]]}, {"class_name": "BatchNormalization", "config": {"name": "expanded_conv_13/expand/BatchNorm", "trainable": true, "dtype": "float32", "axis": [3], "momentum": 0.999, "epsilon": 0.001, "center": true, "scale": true, "beta_initializer": {"class_name": "Zeros", "config": {"dtype": "float32"}}, "gamma_initializer": {"class_name": "Ones", "config": {"dtype": "float32"}}, "moving_mean_initializer": {"class_name": "Zeros", "config": {"dtype": "float32"}}, "moving_variance_initializer": {"class_name": "Ones", "config": {"dtype": "float32"}}, "beta_regularizer": null, "gamma_regularizer": null, "beta_constraint": null, "gamma_constraint": null}, "name": "expanded_conv_13/expand/BatchNorm", "inbound_nodes": [[["expanded_conv_13/expand", 0, 0, {}]]]}, {"class_name": "TensorFlowOpLayer", "config": {"name": "add_21", "trainable": true, "dtype": null, "node_def": {"name": "add_21", "op": "AddV2", "input": ["expanded_conv_13/expand/BatchNorm/cond/Merge", "add_21/y"], "attr": {"T": {"type": "DT_FLOAT"}}}, "constants": {"1": 3.0}}, "name": "tf_op_layer_add_21", "inbound_nodes": [[["expanded_conv_13/expand/BatchNorm", 0, 0, {}]]]}, {"class_name": "ReLU", "config": {"name": "re_lu_32", "trainable": true, "dtype": "float32", "max_value": 6.0, "negative_slope": 0.0, "threshold": 0.0}, "name": "re_lu_32", "inbound_nodes": [[["tf_op_layer_add_21", 0, 0, {}]]]}, {"class_name": "TensorFlowOpLayer", "config": {"name": "mul_21", "trainable": true, "dtype": null, "node_def": {"name": "mul_21", "op": "Mul", "input": ["re_lu_32/Relu6", "mul_21/y"], "attr": {"T": {"type": "DT_FLOAT"}}}, "constants": {"1": 0.1666666716337204}}, "name": "tf_op_layer_mul_21", "inbound_nodes": [[["re_lu_32", 0, 0, {}]]]}, {"class_name": "Multiply", "config": {"name": "multiply_15", "trainable": true, "dtype": "float32"}, "name": "multiply_15", "inbound_nodes": [[["tf_op_layer_mul_21", 0, 0, {}], ["expanded_conv_13/expand/BatchNorm", 0, 0, {}]]]}, {"class_name": "DepthwiseConv2D", "config": {"name": "expanded_conv_13/depthwise", "trainable": true, "dtype": "float32", "kernel_size": [5, 5], "strides": [1, 1], "padding": "same", "data_format": "channels_last", "dilation_rate": [1, 1], "groups": 1, "activation": "linear", "use_bias": false, "bias_initializer": {"class_name": "Zeros", "config": {"dtype": "float32"}}, "bias_regularizer": null, "activity_regularizer": null, "bias_constraint": null, "depth_multiplier": 1, "depthwise_initializer": {"class_name": "GlorotUniform", "config": {"seed": null, "dtype": "float32"}}, "depthwise_regularizer": null, "depthwise_constraint": null}, "name": "expanded_conv_13/depthwise", "inbound_nodes": [[["multiply_15", 0, 0, {}]]]}, {"class_name": "BatchNormalization", "config": {"name": "expanded_conv_13/depthwise/BatchNorm", "trainable": true, "dtype": "float32", "axis": [3], "momentum": 0.999, "epsilon": 0.001, "center": true, "scale": true, "beta_initializer": {"class_name": "Zeros", "config": {"dtype": "float32"}}, "gamma_initializer": {"class_name": "Ones", "config": {"dtype": "float32"}}, "moving_mean_initializer": {"class_name": "Zeros", "config": {"dtype": "float32"}}, "moving_variance_initializer": {"class_name": "Ones", "config": {"dtype": "float32"}}, "beta_regularizer": null, "gamma_regularizer": null, "beta_constraint": null, "gamma_constraint": null}, "name": "expanded_conv_13/depthwise/BatchNorm", "inbound_nodes": [[["expanded_conv_13/depthwise", 0, 0, {}]]]}, {"class_name": "TensorFlowOpLayer", "config": {"name": "add_22", "trainable": true, "dtype": null, "node_def": {"name": "add_22", "op": "AddV2", "input": ["expanded_conv_13/depthwise/BatchNorm/cond/Merge", "add_22/y"], "attr": {"T": {"type": "DT_FLOAT"}}}, "constants": {"1": 3.0}}, "name": "tf_op_layer_add_22", "inbound_nodes": [[["expanded_conv_13/depthwise/BatchNorm", 0, 0, {}]]]}, {"class_name": "ReLU", "config": {"name": "re_lu_33", "trainable": true, "dtype": "float32", "max_value": 6.0, "negative_slope": 0.0, "threshold": 0.0}, "name": "re_lu_33", "inbound_nodes": [[["tf_op_layer_add_22", 0, 0, {}]]]}, {"class_name": "TensorFlowOpLayer", "config": {"name": "mul_22", "trainable": true, "dtype": null, "node_def": {"name": "mul_22", "op": "Mul", "input": ["re_lu_33/Relu6", "mul_22/y"], "attr": {"T": {"type": "DT_FLOAT"}}}, "constants": {"1": 0.1666666716337204}}, "name": "tf_op_layer_mul_22", "inbound_nodes": [[["re_lu_33", 0, 0, {}]]]}, {"class_name": "Multiply", "config": {"name": "multiply_16", "trainable": true, "dtype": "float32"}, "name": "multiply_16", "inbound_nodes": [[["tf_op_layer_mul_22", 0, 0, {}], ["expanded_conv_13/depthwise/BatchNorm", 0, 0, {}]]]}, {"class_name": "GlobalAveragePooling2D", "config": {"name": "expanded_conv_13/squeeze_excite/AvgPool", "trainable": true, "dtype": "float32", "data_format": "channels_last"}, "name": "expanded_conv_13/squeeze_excite/AvgPool", "inbound_nodes": [[["multiply_16", 0, 0, {}]]]}, {"class_name": "Reshape", "config": {"name": "reshape_6", "trainable": true, "dtype": "float32", "target_shape": [1, 1, 960]}, "name": "reshape_6", "inbound_nodes": [[["expanded_conv_13/squeeze_excite/AvgPool", 0, 0, {}]]]}, {"class_name": "Conv2D", "config": {"name": "expanded_conv_13/squeeze_excite/Conv", "trainable": true, "dtype": "float32", "filters": 240, "kernel_size": [1, 1], "strides": [1, 1], "padding": "same", "data_format": "channels_last", "dilation_rate": [1, 1], "groups": 1, "activation": "linear", "use_bias": true, "kernel_initializer": {"class_name": "GlorotUniform", "config": {"seed": null, "dtype": "float32"}}, "bias_initializer": {"class_name": "Zeros", "config": {"dtype": "float32"}}, "kernel_regularizer": null, "bias_regularizer": null, "activity_regularizer": null, "kernel_constraint": null, "bias_constraint": null}, "name": "expanded_conv_13/squeeze_excite/Conv", "inbound_nodes": [[["reshape_6", 0, 0, {}]]]}, {"class_name": "ReLU", "config": {"name": "expanded_conv_13/squeeze_excite/Relu", "trainable": true, "dtype": "float32", "max_value": null, "negative_slope": 0.0, "threshold": 0.0}, "name": "expanded_conv_13/squeeze_excite/Relu", "inbound_nodes": [[["expanded_conv_13/squeeze_excite/Conv", 0, 0, {}]]]}, {"class_name": "Conv2D", "config": {"name": "expanded_conv_13/squeeze_excite/Conv_1", "trainable": true, "dtype": "float32", "filters": 960, "kernel_size": [1, 1], "strides": [1, 1], "padding": "same", "data_format": "channels_last", "dilation_rate": [1, 1], "groups": 1, "activation": "linear", "use_bias": true, "kernel_initializer": {"class_name": "GlorotUniform", "config": {"seed": null, "dtype": "float32"}}, "bias_initializer": {"class_name": "Zeros", "config": {"dtype": "float32"}}, "kernel_regularizer": null, "bias_regularizer": null, "activity_regularizer": null, "kernel_constraint": null, "bias_constraint": null}, "name": "expanded_conv_13/squeeze_excite/Conv_1", "inbound_nodes": [[["expanded_conv_13/squeeze_excite/Relu", 0, 0, {}]]]}, {"class_name": "TensorFlowOpLayer", "config": {"name": "add_23", "trainable": true, "dtype": null, "node_def": {"name": "add_23", "op": "AddV2", "input": ["expanded_conv_13/squeeze_excite/Conv_1/BiasAdd", "add_23/y"], "attr": {"T": {"type": "DT_FLOAT"}}}, "constants": {"1": 3.0}}, "name": "tf_op_layer_add_23", "inbound_nodes": [[["expanded_conv_13/squeeze_excite/Conv_1", 0, 0, {}]]]}, {"class_name": "ReLU", "config": {"name": "re_lu_34", "trainable": true, "dtype": "float32", "max_value": 6.0, "negative_slope": 0.0, "threshold": 0.0}, "name": "re_lu_34", "inbound_nodes": [[["tf_op_layer_add_23", 0, 0, {}]]]}, {"class_name": "TensorFlowOpLayer", "config": {"name": "mul_23", "trainable": true, "dtype": null, "node_def": {"name": "mul_23", "op": "Mul", "input": ["re_lu_34/Relu6", "mul_23/y"], "attr": {"T": {"type": "DT_FLOAT"}}}, "constants": {"1": 0.1666666716337204}}, "name": "tf_op_layer_mul_23", "inbound_nodes": [[["re_lu_34", 0, 0, {}]]]}, {"class_name": "Multiply", "config": {"name": "expanded_conv_13/squeeze_excite/Mul", "trainable": true, "dtype": "float32"}, "name": "expanded_conv_13/squeeze_excite/Mul", "inbound_nodes": [[["multiply_16", 0, 0, {}], ["tf_op_layer_mul_23", 0, 0, {}]]]}, {"class_name": "Conv2D", "config": {"name": "expanded_conv_13/project", "trainable": true, "dtype": "float32", "filters": 160, "kernel_size": [1, 1], "strides": [1, 1], "padding": "same", "data_format": "channels_last", "dilation_rate": [1, 1], "groups": 1, "activation": "linear", "use_bias": false, "kernel_initializer": {"class_name": "GlorotUniform", "config": {"seed": null, "dtype": "float32"}}, "bias_initializer": {"class_name": "Zeros", "config": {"dtype": "float32"}}, "kernel_regularizer": null, "bias_regularizer": null, "activity_regularizer": null, "kernel_constraint": null, "bias_constraint": null}, "name": "expanded_conv_13/project", "inbound_nodes": [[["expanded_conv_13/squeeze_excite/Mul", 0, 0, {}]]]}, {"class_name": "BatchNormalization", "config": {"name": "expanded_conv_13/project/BatchNorm", "trainable": true, "dtype": "float32", "axis": [3], "momentum": 0.999, "epsilon": 0.001, "center": true, "scale": true, "beta_initializer": {"class_name": "Zeros", "config": {"dtype": "float32"}}, "gamma_initializer": {"class_name": "Ones", "config": {"dtype": "float32"}}, "moving_mean_initializer": {"class_name": "Zeros", "config": {"dtype": "float32"}}, "moving_variance_initializer": {"class_name": "Ones", "config": {"dtype": "float32"}}, "beta_regularizer": null, "gamma_regularizer": null, "beta_constraint": null, "gamma_constraint": null}, "name": "expanded_conv_13/project/BatchNorm", "inbound_nodes": [[["expanded_conv_13/project", 0, 0, {}]]]}, {"class_name": "Add", "config": {"name": "expanded_conv_13/Add", "trainable": true, "dtype": "float32"}, "name": "expanded_conv_13/Add", "inbound_nodes": [[["expanded_conv_12/project/BatchNorm", 0, 0, {}], ["expanded_conv_13/project/BatchNorm", 0, 0, {}]]]}, {"class_name": "Conv2D", "config": {"name": "expanded_conv_14/expand", "trainable": true, "dtype": "float32", "filters": 960, "kernel_size": [1, 1], "strides": [1, 1], "padding": "same", "data_format": "channels_last", "dilation_rate": [1, 1], "groups": 1, "activation": "linear", "use_bias": false, "kernel_initializer": {"class_name": "GlorotUniform", "config": {"seed": null, "dtype": "float32"}}, "bias_initializer": {"class_name": "Zeros", "config": {"dtype": "float32"}}, "kernel_regularizer": null, "bias_regularizer": null, "activity_regularizer": null, "kernel_constraint": null, "bias_constraint": null}, "name": "expanded_conv_14/expand", "inbound_nodes": [[["expanded_conv_13/Add", 0, 0, {}]]]}, {"class_name": "BatchNormalization", "config": {"name": "expanded_conv_14/expand/BatchNorm", "trainable": true, "dtype": "float32", "axis": [3], "momentum": 0.999, "epsilon": 0.001, "center": true, "scale": true, "beta_initializer": {"class_name": "Zeros", "config": {"dtype": "float32"}}, "gamma_initializer": {"class_name": "Ones", "config": {"dtype": "float32"}}, "moving_mean_initializer": {"class_name": "Zeros", "config": {"dtype": "float32"}}, "moving_variance_initializer": {"class_name": "Ones", "config": {"dtype": "float32"}}, "beta_regularizer": null, "gamma_regularizer": null, "beta_constraint": null, "gamma_constraint": null}, "name": "expanded_conv_14/expand/BatchNorm", "inbound_nodes": [[["expanded_conv_14/expand", 0, 0, {}]]]}, {"class_name": "TensorFlowOpLayer", "config": {"name": "add_24", "trainable": true, "dtype": null, "node_def": {"name": "add_24", "op": "AddV2", "input": ["expanded_conv_14/expand/BatchNorm/cond/Merge", "add_24/y"], "attr": {"T": {"type": "DT_FLOAT"}}}, "constants": {"1": 3.0}}, "name": "tf_op_layer_add_24", "inbound_nodes": [[["expanded_conv_14/expand/BatchNorm", 0, 0, {}]]]}, {"class_name": "ReLU", "config": {"name": "re_lu_35", "trainable": true, "dtype": "float32", "max_value": 6.0, "negative_slope": 0.0, "threshold": 0.0}, "name": "re_lu_35", "inbound_nodes": [[["tf_op_layer_add_24", 0, 0, {}]]]}, {"class_name": "TensorFlowOpLayer", "config": {"name": "mul_24", "trainable": true, "dtype": null, "node_def": {"name": "mul_24", "op": "Mul", "input": ["re_lu_35/Relu6", "mul_24/y"], "attr": {"T": {"type": "DT_FLOAT"}}}, "constants": {"1": 0.1666666716337204}}, "name": "tf_op_layer_mul_24", "inbound_nodes": [[["re_lu_35", 0, 0, {}]]]}, {"class_name": "Multiply", "config": {"name": "multiply_17", "trainable": true, "dtype": "float32"}, "name": "multiply_17", "inbound_nodes": [[["tf_op_layer_mul_24", 0, 0, {}], ["expanded_conv_14/expand/BatchNorm", 0, 0, {}]]]}, {"class_name": "DepthwiseConv2D", "config": {"name": "expanded_conv_14/depthwise", "trainable": true, "dtype": "float32", "kernel_size": [5, 5], "strides": [1, 1], "padding": "same", "data_format": "channels_last", "dilation_rate": [1, 1], "groups": 1, "activation": "linear", "use_bias": false, "bias_initializer": {"class_name": "Zeros", "config": {"dtype": "float32"}}, "bias_regularizer": null, "activity_regularizer": null, "bias_constraint": null, "depth_multiplier": 1, "depthwise_initializer": {"class_name": "GlorotUniform", "config": {"seed": null, "dtype": "float32"}}, "depthwise_regularizer": null, "depthwise_constraint": null}, "name": "expanded_conv_14/depthwise", "inbound_nodes": [[["multiply_17", 0, 0, {}]]]}, {"class_name": "BatchNormalization", "config": {"name": "expanded_conv_14/depthwise/BatchNorm", "trainable": true, "dtype": "float32", "axis": [3], "momentum": 0.999, "epsilon": 0.001, "center": true, "scale": true, "beta_initializer": {"class_name": "Zeros", "config": {"dtype": "float32"}}, "gamma_initializer": {"class_name": "Ones", "config": {"dtype": "float32"}}, "moving_mean_initializer": {"class_name": "Zeros", "config": {"dtype": "float32"}}, "moving_variance_initializer": {"class_name": "Ones", "config": {"dtype": "float32"}}, "beta_regularizer": null, "gamma_regularizer": null, "beta_constraint": null, "gamma_constraint": null}, "name": "expanded_conv_14/depthwise/BatchNorm", "inbound_nodes": [[["expanded_conv_14/depthwise", 0, 0, {}]]]}, {"class_name": "TensorFlowOpLayer", "config": {"name": "add_25", "trainable": true, "dtype": null, "node_def": {"name": "add_25", "op": "AddV2", "input": ["expanded_conv_14/depthwise/BatchNorm/cond/Merge", "add_25/y"], "attr": {"T": {"type": "DT_FLOAT"}}}, "constants": {"1": 3.0}}, "name": "tf_op_layer_add_25", "inbound_nodes": [[["expanded_conv_14/depthwise/BatchNorm", 0, 0, {}]]]}, {"class_name": "ReLU", "config": {"name": "re_lu_36", "trainable": true, "dtype": "float32", "max_value": 6.0, "negative_slope": 0.0, "threshold": 0.0}, "name": "re_lu_36", "inbound_nodes": [[["tf_op_layer_add_25", 0, 0, {}]]]}, {"class_name": "TensorFlowOpLayer", "config": {"name": "mul_25", "trainable": true, "dtype": null, "node_def": {"name": "mul_25", "op": "Mul", "input": ["re_lu_36/Relu6", "mul_25/y"], "attr": {"T": {"type": "DT_FLOAT"}}}, "constants": {"1": 0.1666666716337204}}, "name": "tf_op_layer_mul_25", "inbound_nodes": [[["re_lu_36", 0, 0, {}]]]}, {"class_name": "Multiply", "config": {"name": "multiply_18", "trainable": true, "dtype": "float32"}, "name": "multiply_18", "inbound_nodes": [[["tf_op_layer_mul_25", 0, 0, {}], ["expanded_conv_14/depthwise/BatchNorm", 0, 0, {}]]]}, {"class_name": "GlobalAveragePooling2D", "config": {"name": "expanded_conv_14/squeeze_excite/AvgPool", "trainable": true, "dtype": "float32", "data_format": "channels_last"}, "name": "expanded_conv_14/squeeze_excite/AvgPool", "inbound_nodes": [[["multiply_18", 0, 0, {}]]]}, {"class_name": "Reshape", "config": {"name": "reshape_7", "trainable": true, "dtype": "float32", "target_shape": [1, 1, 960]}, "name": "reshape_7", "inbound_nodes": [[["expanded_conv_14/squeeze_excite/AvgPool", 0, 0, {}]]]}, {"class_name": "Conv2D", "config": {"name": "expanded_conv_14/squeeze_excite/Conv", "trainable": true, "dtype": "float32", "filters": 240, "kernel_size": [1, 1], "strides": [1, 1], "padding": "same", "data_format": "channels_last", "dilation_rate": [1, 1], "groups": 1, "activation": "linear", "use_bias": true, "kernel_initializer": {"class_name": "GlorotUniform", "config": {"seed": null, "dtype": "float32"}}, "bias_initializer": {"class_name": "Zeros", "config": {"dtype": "float32"}}, "kernel_regularizer": null, "bias_regularizer": null, "activity_regularizer": null, "kernel_constraint": null, "bias_constraint": null}, "name": "expanded_conv_14/squeeze_excite/Conv", "inbound_nodes": [[["reshape_7", 0, 0, {}]]]}, {"class_name": "ReLU", "config": {"name": "expanded_conv_14/squeeze_excite/Relu", "trainable": true, "dtype": "float32", "max_value": null, "negative_slope": 0.0, "threshold": 0.0}, "name": "expanded_conv_14/squeeze_excite/Relu", "inbound_nodes": [[["expanded_conv_14/squeeze_excite/Conv", 0, 0, {}]]]}, {"class_name": "Conv2D", "config": {"name": "expanded_conv_14/squeeze_excite/Conv_1", "trainable": true, "dtype": "float32", "filters": 960, "kernel_size": [1, 1], "strides": [1, 1], "padding": "same", "data_format": "channels_last", "dilation_rate": [1, 1], "groups": 1, "activation": "linear", "use_bias": true, "kernel_initializer": {"class_name": "GlorotUniform", "config": {"seed": null, "dtype": "float32"}}, "bias_initializer": {"class_name": "Zeros", "config": {"dtype": "float32"}}, "kernel_regularizer": null, "bias_regularizer": null, "activity_regularizer": null, "kernel_constraint": null, "bias_constraint": null}, "name": "expanded_conv_14/squeeze_excite/Conv_1", "inbound_nodes": [[["expanded_conv_14/squeeze_excite/Relu", 0, 0, {}]]]}, {"class_name": "TensorFlowOpLayer", "config": {"name": "add_26", "trainable": true, "dtype": null, "node_def": {"name": "add_26", "op": "AddV2", "input": ["expanded_conv_14/squeeze_excite/Conv_1/BiasAdd", "add_26/y"], "attr": {"T": {"type": "DT_FLOAT"}}}, "constants": {"1": 3.0}}, "name": "tf_op_layer_add_26", "inbound_nodes": [[["expanded_conv_14/squeeze_excite/Conv_1", 0, 0, {}]]]}, {"class_name": "ReLU", "config": {"name": "re_lu_37", "trainable": true, "dtype": "float32", "max_value": 6.0, "negative_slope": 0.0, "threshold": 0.0}, "name": "re_lu_37", "inbound_nodes": [[["tf_op_layer_add_26", 0, 0, {}]]]}, {"class_name": "TensorFlowOpLayer", "config": {"name": "mul_26", "trainable": true, "dtype": null, "node_def": {"name": "mul_26", "op": "Mul", "input": ["re_lu_37/Relu6", "mul_26/y"], "attr": {"T": {"type": "DT_FLOAT"}}}, "constants": {"1": 0.1666666716337204}}, "name": "tf_op_layer_mul_26", "inbound_nodes": [[["re_lu_37", 0, 0, {}]]]}, {"class_name": "Multiply", "config": {"name": "expanded_conv_14/squeeze_excite/Mul", "trainable": true, "dtype": "float32"}, "name": "expanded_conv_14/squeeze_excite/Mul", "inbound_nodes": [[["multiply_18", 0, 0, {}], ["tf_op_layer_mul_26", 0, 0, {}]]]}, {"class_name": "Conv2D", "config": {"name": "expanded_conv_14/project", "trainable": true, "dtype": "float32", "filters": 160, "kernel_size": [1, 1], "strides": [1, 1], "padding": "same", "data_format": "channels_last", "dilation_rate": [1, 1], "groups": 1, "activation": "linear", "use_bias": false, "kernel_initializer": {"class_name": "GlorotUniform", "config": {"seed": null, "dtype": "float32"}}, "bias_initializer": {"class_name": "Zeros", "config": {"dtype": "float32"}}, "kernel_regularizer": null, "bias_regularizer": null, "activity_regularizer": null, "kernel_constraint": null, "bias_constraint": null}, "name": "expanded_conv_14/project", "inbound_nodes": [[["expanded_conv_14/squeeze_excite/Mul", 0, 0, {}]]]}, {"class_name": "BatchNormalization", "config": {"name": "expanded_conv_14/project/BatchNorm", "trainable": true, "dtype": "float32", "axis": [3], "momentum": 0.999, "epsilon": 0.001, "center": true, "scale": true, "beta_initializer": {"class_name": "Zeros", "config": {"dtype": "float32"}}, "gamma_initializer": {"class_name": "Ones", "config": {"dtype": "float32"}}, "moving_mean_initializer": {"class_name": "Zeros", "config": {"dtype": "float32"}}, "moving_variance_initializer": {"class_name": "Ones", "config": {"dtype": "float32"}}, "beta_regularizer": null, "gamma_regularizer": null, "beta_constraint": null, "gamma_constraint": null}, "name": "expanded_conv_14/project/BatchNorm", "inbound_nodes": [[["expanded_conv_14/project", 0, 0, {}]]]}, {"class_name": "Add", "config": {"name": "expanded_conv_14/Add", "trainable": true, "dtype": "float32"}, "name": "expanded_conv_14/Add", "inbound_nodes": [[["expanded_conv_13/Add", 0, 0, {}], ["expanded_conv_14/project/BatchNorm", 0, 0, {}]]]}, {"class_name": "Conv2D", "config": {"name": "Conv_1", "trainable": true, "dtype": "float32", "filters": 960, "kernel_size": [1, 1], "strides": [1, 1], "padding": "same", "data_format": "channels_last", "dilation_rate": [1, 1], "groups": 1, "activation": "linear", "use_bias": false, "kernel_initializer": {"class_name": "GlorotUniform", "config": {"seed": null, "dtype": "float32"}}, "bias_initializer": {"class_name": "Zeros", "config": {"dtype": "float32"}}, "kernel_regularizer": null, "bias_regularizer": null, "activity_regularizer": null, "kernel_constraint": null, "bias_constraint": null}, "name": "Conv_1", "inbound_nodes": [[["expanded_conv_14/Add", 0, 0, {}]]]}, {"class_name": "BatchNormalization", "config": {"name": "Conv_1/BatchNorm", "trainable": true, "dtype": "float32", "axis": [3], "momentum": 0.999, "epsilon": 0.001, "center": true, "scale": true, "beta_initializer": {"class_name": "Zeros", "config": {"dtype": "float32"}}, "gamma_initializer": {"class_name": "Ones", "config": {"dtype": "float32"}}, "moving_mean_initializer": {"class_name": "Zeros", "config": {"dtype": "float32"}}, "moving_variance_initializer": {"class_name": "Ones", "config": {"dtype": "float32"}}, "beta_regularizer": null, "gamma_regularizer": null, "beta_constraint": null, "gamma_constraint": null}, "name": "Conv_1/BatchNorm", "inbound_nodes": [[["Conv_1", 0, 0, {}]]]}, {"class_name": "TensorFlowOpLayer", "config": {"name": "add_27", "trainable": true, "dtype": null, "node_def": {"name": "add_27", "op": "AddV2", "input": ["Conv_1/BatchNorm/cond/Merge", "add_27/y"], "attr": {"T": {"type": "DT_FLOAT"}}}, "constants": {"1": 3.0}}, "name": "tf_op_layer_add_27", "inbound_nodes": [[["Conv_1/BatchNorm", 0, 0, {}]]]}, {"class_name": "ReLU", "config": {"name": "re_lu_38", "trainable": true, "dtype": "float32", "max_value": 6.0, "negative_slope": 0.0, "threshold": 0.0}, "name": "re_lu_38", "inbound_nodes": [[["tf_op_layer_add_27", 0, 0, {}]]]}, {"class_name": "TensorFlowOpLayer", "config": {"name": "mul_27", "trainable": true, "dtype": null, "node_def": {"name": "mul_27", "op": "Mul", "input": ["re_lu_38/Relu6", "mul_27/y"], "attr": {"T": {"type": "DT_FLOAT"}}}, "constants": {"1": 0.1666666716337204}}, "name": "tf_op_layer_mul_27", "inbound_nodes": [[["re_lu_38", 0, 0, {}]]]}, {"class_name": "Multiply", "config": {"name": "multiply_19", "trainable": true, "dtype": "float32"}, "name": "multiply_19", "inbound_nodes": [[["tf_op_layer_mul_27", 0, 0, {}], ["Conv_1/BatchNorm", 0, 0, {}]]]}, {"class_name": "Conv2D", "config": {"name": "Conv_2", "trainable": true, "dtype": "float32", "filters": 1280, "kernel_size": [1, 1], "strides": [1, 1], "padding": "same", "data_format": "channels_last", "dilation_rate": [1, 1], "groups": 1, "activation": "linear", "use_bias": true, "kernel_initializer": {"class_name": "GlorotUniform", "config": {"seed": null, "dtype": "float32"}}, "bias_initializer": {"class_name": "Zeros", "config": {"dtype": "float32"}}, "kernel_regularizer": null, "bias_regularizer": null, "activity_regularizer": null, "kernel_constraint": null, "bias_constraint": null}, "name": "Conv_2", "inbound_nodes": [[["multiply_19", 0, 0, {}]]]}, {"class_name": "TensorFlowOpLayer", "config": {"name": "add_28", "trainable": true, "dtype": null, "node_def": {"name": "add_28", "op": "AddV2", "input": ["Conv_2/BiasAdd", "add_28/y"], "attr": {"T": {"type": "DT_FLOAT"}}}, "constants": {"1": 3.0}}, "name": "tf_op_layer_add_28", "inbound_nodes": [[["Conv_2", 0, 0, {}]]]}, {"class_name": "ReLU", "config": {"name": "re_lu_39", "trainable": true, "dtype": "float32", "max_value": 6.0, "negative_slope": 0.0, "threshold": 0.0}, "name": "re_lu_39", "inbound_nodes": [[["tf_op_layer_add_28", 0, 0, {}]]]}, {"class_name": "TensorFlowOpLayer", "config": {"name": "mul_28", "trainable": true, "dtype": null, "node_def": {"name": "mul_28", "op": "Mul", "input": ["re_lu_39/Relu6", "mul_28/y"], "attr": {"T": {"type": "DT_FLOAT"}}}, "constants": {"1": 0.1666666716337204}}, "name": "tf_op_layer_mul_28", "inbound_nodes": [[["re_lu_39", 0, 0, {}]]]}, {"class_name": "Multiply", "config": {"name": "multiply_20", "trainable": true, "dtype": "float32"}, "name": "multiply_20", "inbound_nodes": [[["tf_op_layer_mul_28", 0, 0, {}], ["Conv_2", 0, 0, {}]]]}, {"class_name": "Conv2D", "config": {"name": "conv2d", "trainable": true, "dtype": "float32", "filters": 32, "kernel_size": [3, 3], "strides": [1, 1], "padding": "valid", "data_format": "channels_last", "dilation_rate": [1, 1], "groups": 1, "activation": "relu", "use_bias": true, "kernel_initializer": {"class_name": "GlorotUniform", "config": {"seed": null, "dtype": "float32"}}, "bias_initializer": {"class_name": "Zeros", "config": {"dtype": "float32"}}, "kernel_regularizer": null, "bias_regularizer": null, "activity_regularizer": null, "kernel_constraint": null, "bias_constraint": null}, "name": "conv2d", "inbound_nodes": [[["multiply_20", 0, 0, {}]]]}, {"class_name": "Dropout", "config": {"name": "extra_dropout1", "trainable": true, "dtype": "float32", "rate": 0.2, "noise_shape": null, "seed": null}, "name": "extra_dropout1", "inbound_nodes": [[["conv2d", 0, 0, {}]]]}, {"class_name": "GlobalAveragePooling2D", "config": {"name": "global_average_pooling2d", "trainable": true, "dtype": "float32", "data_format": "channels_last"}, "name": "global_average_pooling2d", "inbound_nodes": [[["extra_dropout1", 0, 0, {}]]]}, {"class_name": "Dense", "config": {"name": "classifier", "trainable": true, "dtype": "float32", "units": 1, "activation": "sigmoid", "use_bias": true, "kernel_initializer": {"class_name": "GlorotUniform", "config": {"seed": null, "dtype": "float32"}}, "bias_initializer": {"class_name": "Zeros", "config": {"dtype": "float32"}}, "kernel_regularizer": null, "bias_regularizer": null, "activity_regularizer": null, "kernel_constraint": null, "bias_constraint": null}, "name": "classifier", "inbound_nodes": [[["global_average_pooling2d", 0, 0, {}]]]}], "input_layers": [["input_1", 0, 0]], "output_layers": [["classifier", 0, 0]]}}, "training_config": {"loss": "binary_crossentropy", "metrics": ["accuracy"], "loss_weights": null, "sample_weight_mode": null, "weighted_metrics": null, "optimizer_config": {"class_name": "Adam", "config": {"name": "Adam", "learning_rate": 4.999999873689376e-05, "decay": 9.999999974752427e-07, "beta_1": 0.8999999761581421, "beta_2": 0.9990000128746033, "epsilon": 1e-07, "amsgrad": false}}}}, "weightsManifest": [{"paths": ["group1-shard1of5.bin", "group1-shard2of5.bin", "group1-shard3of5.bin", "group1-shard4of5.bin", "group1-shard5of5.bin"], "weights": [{"name": "Conv/kernel", "shape": [3, 3, 3, 16], "dtype": "float32"}, {"name": "Conv_1/kernel", "shape": [1, 1, 160, 960], "dtype": "float32"}, {"name": "Conv_2/kernel", "shape": [1, 1, 960, 1280], "dtype": "float32"}, {"name": "Conv_2/bias", "shape": [1280], "dtype": "float32"}, {"name": "classifier/kernel", "shape": [32, 1], "dtype": "float32"}, {"name": "classifier/bias", "shape": [1], "dtype": "float32"}, {"name": "conv2d/kernel", "shape": [3, 3, 1280, 32], "dtype": "float32"}, {"name": "conv2d/bias", "shape": [32], "dtype": "float32"}, {"name": "expanded_conv/depthwise/depthwise_kernel", "shape": [3, 3, 16, 1], "dtype": "float32"}, {"name": "expanded_conv/project/kernel", "shape": [1, 1, 16, 16], "dtype": "float32"}, {"name": "expanded_conv_1/depthwise/depthwise_kernel", "shape": [3, 3, 64, 1], "dtype": "float32"}, {"name": "expanded_conv_1/expand/kernel", "shape": [1, 1, 16, 64], "dtype": "float32"}, {"name": "expanded_conv_1/project/kernel", "shape": [1, 1, 64, 24], "dtype": "float32"}, {"name": "expanded_conv_10/depthwise/depthwise_kernel", "shape": [3, 3, 480, 1], "dtype": "float32"}, {"name": "expanded_conv_10/expand/kernel", "shape": [1, 1, 80, 480], "dtype": "float32"}, {"name": "expanded_conv_10/project/kernel", "shape": [1, 1, 480, 112], "dtype": "float32"}, {"name": "expanded_conv_10/squeeze_excite/Conv/kernel", "shape": [1, 1, 480, 120], "dtype": "float32"}, {"name": "expanded_conv_10/squeeze_excite/Conv/bias", "shape": [120], "dtype": "float32"}, {"name": "expanded_conv_10/squeeze_excite/Conv_1/kernel", "shape": [1, 1, 120, 480], "dtype": "float32"}, {"name": "expanded_conv_10/squeeze_excite/Conv_1/bias", "shape": [480], "dtype": "float32"}, {"name": "expanded_conv_11/depthwise/depthwise_kernel", "shape": [3, 3, 672, 1], "dtype": "float32"}, {"name": "expanded_conv_11/expand/kernel", "shape": [1, 1, 112, 672], "dtype": "float32"}, {"name": "expanded_conv_11/project/kernel", "shape": [1, 1, 672, 112], "dtype": "float32"}, {"name": "expanded_conv_11/squeeze_excite/Conv/kernel", "shape": [1, 1, 672, 168], "dtype": "float32"}, {"name": "expanded_conv_11/squeeze_excite/Conv/bias", "shape": [168], "dtype": "float32"}, {"name": "expanded_conv_11/squeeze_excite/Conv_1/kernel", "shape": [1, 1, 168, 672], "dtype": "float32"}, {"name": "expanded_conv_11/squeeze_excite/Conv_1/bias", "shape": [672], "dtype": "float32"}, {"name": "expanded_conv_12/depthwise/depthwise_kernel", "shape": [5, 5, 672, 1], "dtype": "float32"}, {"name": "expanded_conv_12/expand/kernel", "shape": [1, 1, 112, 672], "dtype": "float32"}, {"name": "expanded_conv_12/project/kernel", "shape": [1, 1, 672, 160], "dtype": "float32"}, {"name": "expanded_conv_12/squeeze_excite/Conv/kernel", "shape": [1, 1, 672, 168], "dtype": "float32"}, {"name": "expanded_conv_12/squeeze_excite/Conv/bias", "shape": [168], "dtype": "float32"}, {"name": "expanded_conv_12/squeeze_excite/Conv_1/kernel", "shape": [1, 1, 168, 672], "dtype": "float32"}, {"name": "expanded_conv_12/squeeze_excite/Conv_1/bias", "shape": [672], "dtype": "float32"}, {"name": "expanded_conv_13/depthwise/depthwise_kernel", "shape": [5, 5, 960, 1], "dtype": "float32"}, {"name": "expanded_conv_13/expand/kernel", "shape": [1, 1, 160, 960], "dtype": "float32"}, {"name": "expanded_conv_13/project/kernel", "shape": [1, 1, 960, 160], "dtype": "float32"}, {"name": "expanded_conv_13/squeeze_excite/Conv/kernel", "shape": [1, 1, 960, 240], "dtype": "float32"}, {"name": "expanded_conv_13/squeeze_excite/Conv/bias", "shape": [240], "dtype": "float32"}, {"name": "expanded_conv_13/squeeze_excite/Conv_1/kernel", "shape": [1, 1, 240, 960], "dtype": "float32"}, {"name": "expanded_conv_13/squeeze_excite/Conv_1/bias", "shape": [960], "dtype": "float32"}, {"name": "expanded_conv_14/depthwise/depthwise_kernel", "shape": [5, 5, 960, 1], "dtype": "float32"}, {"name": "expanded_conv_14/expand/kernel", "shape": [1, 1, 160, 960], "dtype": "float32"}, {"name": "expanded_conv_14/project/kernel", "shape": [1, 1, 960, 160], "dtype": "float32"}, {"name": "expanded_conv_14/squeeze_excite/Conv/kernel", "shape": [1, 1, 960, 240], "dtype": "float32"}, {"name": "expanded_conv_14/squeeze_excite/Conv/bias", "shape": [240], "dtype": "float32"}, {"name": "expanded_conv_14/squeeze_excite/Conv_1/kernel", "shape": [1, 1, 240, 960], "dtype": "float32"}, {"name": "expanded_conv_14/squeeze_excite/Conv_1/bias", "shape": [960], "dtype": "float32"}, {"name": "expanded_conv_2/depthwise/depthwise_kernel", "shape": [3, 3, 72, 1], "dtype": "float32"}, {"name": "expanded_conv_2/expand/kernel", "shape": [1, 1, 24, 72], "dtype": "float32"}, {"name": "expanded_conv_2/project/kernel", "shape": [1, 1, 72, 24], "dtype": "float32"}, {"name": "expanded_conv_3/depthwise/depthwise_kernel", "shape": [5, 5, 72, 1], "dtype": "float32"}, {"name": "expanded_conv_3/expand/kernel", "shape": [1, 1, 24, 72], "dtype": "float32"}, {"name": "expanded_conv_3/project/kernel", "shape": [1, 1, 72, 40], "dtype": "float32"}, {"name": "expanded_conv_3/squeeze_excite/Conv/kernel", "shape": [1, 1, 72, 24], "dtype": "float32"}, {"name": "expanded_conv_3/squeeze_excite/Conv/bias", "shape": [24], "dtype": "float32"}, {"name": "expanded_conv_3/squeeze_excite/Conv_1/kernel", "shape": [1, 1, 24, 72], "dtype": "float32"}, {"name": "expanded_conv_3/squeeze_excite/Conv_1/bias", "shape": [72], "dtype": "float32"}, {"name": "expanded_conv_4/depthwise/depthwise_kernel", "shape": [5, 5, 120, 1], "dtype": "float32"}, {"name": "expanded_conv_4/expand/kernel", "shape": [1, 1, 40, 120], "dtype": "float32"}, {"name": "expanded_conv_4/project/kernel", "shape": [1, 1, 120, 40], "dtype": "float32"}, {"name": "expanded_conv_4/squeeze_excite/Conv/kernel", "shape": [1, 1, 120, 32], "dtype": "float32"}, {"name": "expanded_conv_4/squeeze_excite/Conv/bias", "shape": [32], "dtype": "float32"}, {"name": "expanded_conv_4/squeeze_excite/Conv_1/kernel", "shape": [1, 1, 32, 120], "dtype": "float32"}, {"name": "expanded_conv_4/squeeze_excite/Conv_1/bias", "shape": [120], "dtype": "float32"}, {"name": "expanded_conv_5/depthwise/depthwise_kernel", "shape": [5, 5, 120, 1], "dtype": "float32"}, {"name": "expanded_conv_5/expand/kernel", "shape": [1, 1, 40, 120], "dtype": "float32"}, {"name": "expanded_conv_5/project/kernel", "shape": [1, 1, 120, 40], "dtype": "float32"}, {"name": "expanded_conv_5/squeeze_excite/Conv/kernel", "shape": [1, 1, 120, 32], "dtype": "float32"}, {"name": "expanded_conv_5/squeeze_excite/Conv/bias", "shape": [32], "dtype": "float32"}, {"name": "expanded_conv_5/squeeze_excite/Conv_1/kernel", "shape": [1, 1, 32, 120], "dtype": "float32"}, {"name": "expanded_conv_5/squeeze_excite/Conv_1/bias", "shape": [120], "dtype": "float32"}, {"name": "expanded_conv_6/depthwise/depthwise_kernel", "shape": [3, 3, 240, 1], "dtype": "float32"}, {"name": "expanded_conv_6/expand/kernel", "shape": [1, 1, 40, 240], "dtype": "float32"}, {"name": "expanded_conv_6/project/kernel", "shape": [1, 1, 240, 80], "dtype": "float32"}, {"name": "expanded_conv_7/depthwise/depthwise_kernel", "shape": [3, 3, 200, 1], "dtype": "float32"}, {"name": "expanded_conv_7/expand/kernel", "shape": [1, 1, 80, 200], "dtype": "float32"}, {"name": "expanded_conv_7/project/kernel", "shape": [1, 1, 200, 80], "dtype": "float32"}, {"name": "expanded_conv_8/depthwise/depthwise_kernel", "shape": [3, 3, 184, 1], "dtype": "float32"}, {"name": "expanded_conv_8/expand/kernel", "shape": [1, 1, 80, 184], "dtype": "float32"}, {"name": "expanded_conv_8/project/kernel", "shape": [1, 1, 184, 80], "dtype": "float32"}, {"name": "expanded_conv_9/depthwise/depthwise_kernel", "shape": [3, 3, 184, 1], "dtype": "float32"}, {"name": "expanded_conv_9/expand/kernel", "shape": [1, 1, 80, 184], "dtype": "float32"}, {"name": "expanded_conv_9/project/kernel", "shape": [1, 1, 184, 80], "dtype": "float32"}]}]}